Trained networs/policy_net_multi.pth (torch, 71903 bytes, 6 tensors)

layer1.weight f4 [128, 4]
-0.49892724 0.4807337 0.36493653 -0.4123811 0.33493325 0.065689094 -0.40567547 0.070165515
0.26982507 0.17531466 0.454129 0.08759885 -0.14688 0.13702881 -0.5594022 0.27191755
0.23416501 -0.0068390258 -0.029635012 -0.073856354 -0.39513665 -0.3371446 -0.38186356 -0.45547435
-0.51588666 -0.07189864 0.5942443 -0.25741833 -0.10217358 0.41631803 0.64845574 0.33961904
0.34933755 -0.47784463 -0.31211033 -0.15110208 -0.464733 -0.39882407 -0.054709546 0.30324236
0.17646445 0.32830447 -0.1641184 0.3257998 -0.39124626 0.28714803 0.66188204 0.41032776
0.5145007 0.5537198 -0.26022133 -0.01961054 -0.1189609 -0.32402828 0.07345973 0.3138507
0.17369117 -0.55083615 0.27937654 0.40702826 0.40538687 0.13585904 -0.384973 -0.45183495
-0.43105996 0.4012486 0.22350945 -0.46617135 -0.20749804 -0.33584738 -0.39119178 0.2427146
-0.3456266 0.31160533 0.029834073 0.2226044 -0.378461 0.51362354 0.2235624 0.3064565
0.016660966 -0.4946476 0.2655319 0.4530634 -0.12525874 -0.0144602135 -0.63106424 -0.20428295
0.006571398 0.4281645 -0.0018726795 -0.29546383 -0.1055231 0.43315157 0.70349103 -0.37467906
-0.6609906 0.012149573 0.45028034 0.15751985 -0.39704028 -0.12794279 -0.9444957 -0.09423631
0.58037305 0.3855819 -0.3183397 0.25435233 0.2962134 0.13584687 -0.29118574 -0.04019754
-0.15706524 -0.2591169 0.24403958 0.192254 0.37130442 0.4996714 -0.3184769 -0.06456231
-0.06933686 -0.0633876 0.1366812 0.42351508 0.08300773 0.12737961 0.06745899 -0.03979999
-0.6671278 -0.4790341 0.42477116 -0.11096479 0.35066888 -0.039192773 -0.22502975 0.2273601
-0.46171358 0.09747243 0.5769196 0.34366515 -0.1791711 0.19311365 -0.17594908 0.1981595
-0.36524278 -0.53657866 0.30472547 -0.2092355 0.41570568 0.3357677 -0.7144891 -0.2717105
0.15071714 -0.3986515 -0.50245917 0.35469395 0.8257029 0.5142201 -0.596542 -0.40678945
0.65600497 -0.07849316 -0.6317158 -0.46257097 0.16926466 -0.25506735 -0.38233364 -0.13074796
0.0030694793 -0.17920421 0.35945955 0.3415387 0.030268535 -0.08737998 0.3772778 -0.2754901
0.09572021 0.27799135 0.1461863 0.061715346 0.45026392 -0.4343169 0.07144662 -0.14695032
-0.0542822 -0.18698615 0.0033480742 0.5594729 -0.12137851 0.39632455 -0.51133657 -0.5088273
0.032687273 -0.14220326 -0.30787194 0.08777862 -0.110234916 -0.22982144 -0.1639857 0.4643251
0.34652722 0.33786875 0.608805 0.37157863 0.1341384 0.12851575 -0.51536375 0.42577484
0.32098767 0.21835741 -0.29222304 -0.38733697 -0.4669501 0.4050355 -0.09583549 -0.4005176
0.15839148 0.004561152 0.7717167 -0.20665443 0.19795105 0.077532694 -0.3238514 0.012949099
0.27743354 -0.3723599 -0.08499513 -0.061641224 0.34253687 0.12575144 -0.23073094 -0.1947006
0.43660313 0.013420529 -0.8474055 -0.45513314 0.28790775 0.013038204 0.40106362 -0.23964433
-0.071799584 -0.13610815 -0.13012832 -0.52531356 -0.36963698 0.43303218 0.6391239 0.0857661
-0.2490697 0.45417202 0.35982007 -0.26226544 -0.14718308 0.38169512 -0.16189387 0.26992643
00000000: 6473 ffbe ba22 f63e f6d8 ba3e 9e23 d3be
00000010: 5f7c ab3e 0188 863d b2b4 cfbe f0b2 8f3d
00000020: 8326 8a3e b085 333e 9983 e83e 0767 b33d
00000030: b667 16be 4851 0c3e fc34 0fbf c738 8b3e
00000040: f4c8 6f3e e819 e0bb 20c5 f2bc 0042 97bd
00000050: 5a4f cabe 389e acbe 9f83 c3be ef33 e9be
00000060: 2611 04bf 983f 93bd 6520 183f 56cc 83be
00000070: 6240 d1bd a327 d53e 3201 263f 8ce2 ad3e
00000080: 5fdc b23e 0da8 f4be edcc 9fbe 81ba 1abe
00000090: 7cf1 edbe ab32 ccbe 1e17 60bd 9542 9b3e
000000a0: 19b3 343e 8617 a83e a70e 28be 3bcf a63e
000000b0: 6e51 c8be 1105 933e 1a71 293f 7b16 d23e
000000c0: 51b6 033f 95c0 0d3f bb3b 85be 48a6 a0bc
000000d0: c6a1 f3bd 09e7 a5be 0e72 963d 0ab1 a03e
000000e0: 19dc 313e 9903 0dbf 710a 8f3e 0266 d03e
000000f0: de8e cf3e a21e 0b3e 2e1b c5be e956 e7be
00000100: e4b3 dcbe 7570 cd3e a9df 643e 03ae eebe
00000110: 5e7a 54be 30f4 abbe 4a4a c8be 2d8a 783e
00000120: f8f5 b0be bc8a 9f3e 9666 f43c 68f2 633e
00000130: a4c5 c1be d57c 033f 8bed 643e dee7 9c3e
00000140: 947c 883c 7342 fdbe ccf3 873e edf7 e73e
00000150: d443 00be 88ea 6cbc 6d8d 21bf 8d2f 51be
00000160: e254 d73b 6138 db3e b274 f5ba 0947 97be
00000170: 7f1c d8bd 0bc6 dd3e fd17 343f efd5 bfbe
00000180: ae36 29bf 010f 473c 258b e63e e24c 213e
00000190: dd48 cbbe 6f03 03be 78ca 71bf f7fe c0bd
000001a0: 5493 143f fe6a c53e 6cfd a2be 783a 823e
000001b0: 48a9 973e 711b 0b3e 4c16 95be 2da6 24bd
000001c0: b6d5 20be f8aa 84be 83e5 793e 3cde 443e
000001d0: 9d1b be3e eed4 ff3e 670f a3be 3f39 84bd
000001e0: 7c00 8ebd 5cd1 81bd 28f6 0b3e f8d6 d83e
000001f0: f5ff a93d cd6f 023e f027 8a3d 5005 23bd
00000200: e3c8 2abf f543 f5be 9b7b d93e 8241 e3bd
00000210: df8a b33e 9a88 20bd 336e 66be 16d1 683e
00000220: b965 ecbe a09f c73d 01b1 133f e1f4 af3e
00000230: a178 37be 96bf 453e ff2b 34be 53ea 4a3e
00000240: 1a01 bbbe 385d 09bf fa04 9c3e d541 56be
00000250: 60d7 d43e bee9 ab3e c2e8 36bf a31d 8bbe
00000260: 9855 1a3e 0d1c ccbe 2aa1 00bf 729a b53e
00000270: 4461 533f eea3 033f fab6 18bf b546 d0be
00000280: f1ef 273f 06c1 a0bd 20b8 21bf 1ad6 ecbe
00000290: b753 2d3e 3098 82be 3cc1 c3be cbe2 05be
000002a0: 5129 493b 4f81 37be 150b b83e 29de ae3e
000002b0: b8f5 f73c 46f4 b2bd 8e2a c13e 0a0d 8dbe
000002c0: f508 c43d e254 8e3e ddb1 153e 3bc9 7c3d
000002d0: fe88 e63e c95e debe 9b52 923d 257a 16be
000002e0: 0357 5ebd 4c79 3fbe 5d6b 5b3b 9e39 0f3f
000002f0: 4c95 f8bd 0deb ca3e f4e6 02bf 8242 02bf
00000300: 17e3 053d bb9d 11be 64a1 9dbe 47c5 b33d
00000310: d8c2 e1bd 5056 6bbe deeb 27be 05bc ed3e
00000320: 046c b13e 22fd ac3e a5da 1b3f 8e3f be3e
00000330: 945b 093e a299 033e e1ee 03bf 29ff d93e
00000340: 7f58 a43e 1699 5f3e 429e 95be 0851 c6be
00000350: 1514 efbe d060 cf3e 6645 c4bd a510 cdbe
00000360: 6031 223e b775 953b 3a8f 453f 389d 53be
00000370: aeb3 4a3e 76c9 9e3d dacf a5be 7528 543c
00000380: c50b 8e3e f5a5 bebe ed11 aebd 827b 7cbd
00000390: fe60 af3e fcc4 003e bb44 6cbe 985f 47be
000003a0: 728a df3e c7e1 5b3c 91ef 58bf 3607 e9be
000003b0: a568 933e 319e 553c 3658 cd3e 5365 75be
000003c0: a90b 93bd ef5f 0bbe 5c40 05be f37a 06bf
000003d0: 0f41 bdbe 65b6 dd3e a09d 233f 23a6 af3d
000003e0: 210c 7fbe 3c89 e83e 563a b83e a847 86be
000003f0: 29b7 16be 8b6d c33e 82c7 25be cc33 8a3e

layer1.bias f4 [128]
0.3049239 0.2734407 0.5454886 0.298036 -0.48252803 -0.41269913 0.6245681 0.6890285
0.4150057 -0.34895828 -0.2433717 -0.4317141 -0.3953025 0.15858375 -0.009450142 -0.5010868
-0.17477046 0.5248063 -0.32421762 0.31727883 -0.33688605 -0.23153798 0.2885226 0.28108883
-0.2561007 -0.09546339 0.0028259805 0.5206482 -0.1794058 -0.20901619 0.29107547 0.5414994
-0.20049502 0.7671908 -0.39288393 0.6888925 -0.22508407 -0.5769144 0.5900842 -0.18867719
-0.26068562 0.33808073 -0.35456246 0.7407511 0.5467207 0.38651818 0.10056264 0.22810681
0.27266562 0.67749816 -0.18309851 0.27710027 0.2576224 0.5109104 0.3419403 0.40620288
0.25435504 -0.26955736 -0.47810894 0.3787058 -0.3960835 0.51566803 0.39226753 0.33115813
-0.46078113 0.2704631 0.23580901 -0.5339164 -0.4905555 0.6025463 -0.34332466 -0.3198942
-0.2195035 -0.054516915 -0.42591453 0.5896141 -0.13902843 0.17549029 -0.11337701 0.56745857
0.482887 -0.11772185 -0.47624215 0.38222203 0.6280184 -0.58404064 0.6810657 0.700232
0.10440696 -0.51741594 -0.2321062 0.29357424 -0.40831688 -0.27340874 -0.4175078 -0.01792576
-0.026697922 0.119459525 0.24838336 0.38053018 0.40368205 -0.21507548 -0.2154554 0.05756707
-0.29863125 0.30518815 -0.18878257 0.25035977 0.535844 0.06922316 0.6123923 0.7245198
0.3863801 -0.31999478 0.07050131 0.2404659 -0.35146338 -0.15046184 -0.3566015 0.3211684
0.3621648 0.2777754 0.019748716 0.46783808 0.5057619 0.34036887 -0.3191634 -0.39896756
00000000: fc1e 9c3e 6b00 8c3e 24a5 0b3f 2d98 983e
00000010: ea0d f7be 4d4d d3be b2e3 1f3f 2c64 303f
00000020: a17b d43e a9aa b2be 6e36 79be a109 ddbe
00000030: 1765 cabe c763 223e c5d4 1abc 3947 00bf
00000040: 07f7 32be b559 063f daff a5be 5f72 a23e
00000050: 547c acbe 4b18 6dbe 3cb9 933e e0ea 8f3e
00000060: a21f 83be 4f82 c3bd 1634 393b 3349 053f
00000070: 27b6 37be 5708 56be d807 953e b49f 0a3f
00000080: 914e 4dbe 9e66 443f 1528 c9be 425b 303f
00000090: 707c 66be aab0 13bf c20f 173f 9834 41be
000000a0: 9678 85be eb18 ad3e 3689 b5be dda1 3d3f
000000b0: e3f5 0b3f b6e5 c53e c9f3 cd3d d594 693e
000000c0: d49a 8b3e 8570 2d3f 2d7e 3bbe 16e0 8d3e
000000d0: 15e7 833e 06cb 023f cd12 af3e d3f9 cf3e
000000e0: d33a 823e 6c03 8abe b2ca f4be bae5 c13e
000000f0: 75cb cabe d202 043f 4ad7 c83e 8f8d a93e
00000100: 81eb ebbe 247a 8a3e eb77 713e bfae 08bf
00000110: 172a fbbe 7940 1a3f 40c8 afbe 2cc9 a3be
00000120: 87c5 60be 214d 5fbd 7811 dabe f3f0 163f
00000130: 785d 0ebe bab3 333e 3532 e8bd f744 113f
00000140: f73c f73e 2718 f1bd 03d6 f3be 9bb2 c33e
00000150: d0c5 203f b083 15bf 525a 2e3f 6842 333f
00000160: 51d3 d53d 5f75 04bf 3fad 6dbe 5d4f 963e
00000170: e90e d1be 3bfc 8bbe 95c3 d5be 0bd9 92bc
00000180: 9ab5 dabc 32a7 f43d 3558 7e3e dad4 c23e
00000190: 6aaf ce3e bf3c 5cbe 57a0 5cbe 73cb 6b3d
000001a0: 32e6 98be 9f41 9c3e 3850 41be 282f 803e
000001b0: 132d 093f dfc4 8d3d bec5 1c3f 217a 393f
000001c0: 9dd3 c53e 5bd6 a3be fe62 903d b13c 763e
000001d0: 02f3 b3be ab12 1abe 7994 b6be 2f70 a43e
000001e0: aa6d b93e 9438 8e3e 0fc8 a13c 7988 ef3e
000001f0: 9d79 013f d444 ae3e 6369 a3be 7a45 ccbe

layer2.weight f4 [128, 128]
0.019461216 -0.15234336 -0.020577302 -0.057257414 0.075841464 0.15946865 0.08346692 -0.01714207
0.09973654 0.16884954 0.077602334 -0.005027987 -0.021054087 0.11482784 -0.067970976 0.0658107
0.03803628 0.026800765 0.07112897 -0.11297947 -0.023164295 -0.010840096 0.041347247 -0.02363419
0.2237658 0.25502005 0.004828473 -0.10072074 0.2186291 -0.023746407 0.022594761 0.07247458
0.12207224 0.0018286332 -0.024802571 -0.024664802 0.2048157 -0.05825654 0.009597837 0.030127687
-0.08611684 -0.025795037 -0.12000412 -0.028816769 -0.104160145 -0.030597264 0.04613185 0.034365315
0.043470923 -0.05177359 -0.062652566 -0.18542424 -0.041760035 0.011666598 -0.0905894 -0.005190028
0.071861535 -0.008990135 0.052906714 -0.0015659471 -0.052261163 0.050416164 0.02294149 -0.0057145106
0.0016001096 0.044635646 -0.030871281 -0.056280114 0.028431512 0.07945462 -0.031179894 0.1299959
-0.21797393 0.08237923 0.17917944 -0.09573875 0.13599093 0.12487846 -0.33614802 0.00020847667
-0.054918602 0.19381788 -0.032760154 -0.040931944 0.02722446 -0.08966039 -0.028125599 -0.08702896
-0.10931482 0.38571233 0.20765397 0.108377986 -0.10460865 0.21430825 -0.08211629 -0.29290786
0.18115127 0.00338735 0.1198107 -0.15715934 0.0059084278 0.04385711 0.07298559 0.015338651
-0.039813817 0.05397037 0.07337662 0.03535407 0.061993446 0.10033673 0.011483012 -0.0021184639
0.058109563 -0.0070065553 0.07896673 -0.011680207 0.027774327 0.10741932 0.19854613 0.044299766
0.048568647 -0.21295367 0.028641326 -0.03776438 0.104484305 -0.19798891 -0.02358265 -0.044312738
-0.024586715 -0.012015584 -0.11589695 0.020050634 0.010821134 0.35012862 0.027829729 -0.3949971
0.082034856 0.19800323 0.066706136 0.19638515 0.13096926 0.056059364 0.03432929 0.23379004
0.1228401 0.0908496 -0.022590533 -0.45452473 -0.007867359 0.23712955 0.047032207 0.021423822
0.20744245 0.382186 0.0046123 -0.040346824 0.058213122 0.070103385 0.09381949 -0.07486459
0.22204095 -0.12403717 0.135517 -0.060667384 0.33462295 0.2913755 0.14635147 0.041522082
0.11740041 0.072701745 0.14072967 -0.020797193 -0.08935856 -0.015986575 0.08770439 0.11944233
0.08772715 0.03129813 0.11628895 -0.05010506 0.07923613 0.027923089 -0.14436907 -0.092775375
0.07565731 0.14384921 0.28506467 -0.090994544 0.18792771 -0.27902412 0.017227383 -0.29919648
0.38843057 0.30073053 -0.043381933 0.10525957 0.06799098 0.02771284 0.04188851 0.25116658
0.0817848 0.19364993 0.18332058 -0.17367554 0.16702408 0.0471579 0.073770836 -0.08434192
-0.4008524 0.14318728 0.18145077 -0.1418262 0.063951515 0.27701434 -0.06844913 -0.18055312
0.092187986 0.10526811 0.40439633 0.050031867 0.08277495 0.36424583 0.13928719 0.025787143
0.10793891 -0.08683331 0.063754 -0.005199346 -0.08482223 0.06954263 0.35161737 0.07333848
0.12517767 0.10119906 0.16414717 -0.09275499 0.0043209735 0.14682072 -0.060155127 -0.2161601
0.13579562 0.32645085 -0.035801843 -0.07213877 -0.07272976 0.5191161 0.13077469 0.14797112
-0.037626334 -0.0038007067 -0.07208731 0.019841013 0.11607078 -0.34195465 0.4816032 0.24825993
00000000: 216d 9f3c e6ff 1bbe bb91 a8bc c086 6abd
00000010: c552 9b3d c04b 233e b4f0 aa3d 876d 8cbc
00000020: ac42 cc3d e5e6 2c3e f9ed 9e3d d0c1 a4bb
00000030: 9f79 acbc dc2a eb3d 5e34 8bbd c3c7 863d
00000040: eecb 1b3d 478d db3c 11ac 913d c861 e7bd
00000050: 0cc3 bdbc a89a 31bc bb5b 293d 7d9c c1bc
00000060: dd22 653e fd91 823e 2b38 9e3b ad46 cebd
00000070: 4fe0 5f3e d387 c2bc a618 b93c 8d6d 943d
00000080: 0301 fa3d c0ae ef3a c32e cbbc d70d cabc
00000090: 35bb 513e 699e 6ebd 3f40 1d3c 57ce f63c
000000a0: 075e b0bd 1d50 d3bc b8c4 f5bd 2511 ecbc
000000b0: ea51 d5bd 1da7 fabc c0f4 3c3d a5c2 0c3d
000000c0: 910e 323d 8b10 54bd fd4f 80bd dadf 3dbe
000000d0: 920c 2bbd 4225 3f3c ef86 b9bd 1c11 aabb
000000e0: 242c 933d 5c4b 13bc b6b4 583d 7740 cdba
000000f0: cd0f 56bd 2e81 4e3d cbef bb3c ca40 bbbb
00000100: c5ba d13a ded3 363d c5e5 fcbc fa85 66bd
00000110: 34e9 e83c 1bb9 a23d fa6c ffbc a51d 053e
00000120: 8f34 5fbe 71b6 a83d d17a 373e ae12 c4bd
00000130: 3541 0b3e 47c0 ff3d 981b acbe 889a 5a39
00000140: 54f2 60bd 3278 463e 832f 06bd 41a8 27bd
00000150: d505 df3c de9f b7bd a867 e6bc 3d3c b2bd
00000160: 73e0 dfbd 167c c53e 3ea3 543e 47f5 dd3d
00000170: 0f3d d6bd 9f73 5b3e 962c a8bd 05f8 95be
00000180: b87f 393e 4dfe 5d3b 505f f53d 61ee 20be
00000190: 7c9b c13b 83a3 333d 7879 953d f74e 7b3c
000001a0: d013 23bd 0910 5d3d 7b46 963d 6ecf 103d
000001b0: d7ec 7d3d 587d cd3d 3e23 3c3c edd5 0abb
000001c0: 4b04 6e3d 3f97 e5bb 4fb9 a13d 575e 3fbc
000001d0: fc86 e33c a9fe db3d ad4f 4b3e ac73 353d
000001e0: ebef 463d 8710 5abe 37a1 ea3c d3ae 1abd
000001f0: defb d53d 9bbd 4abe 6730 c1bc 4681 35bd
00000200: 146a c9bc 03dd 44bc 615b edbd 3a41 a43c
00000210: 204b 313c 0f44 b33e 2cfb e33c 0f3d cabe
00000220: e401 a83d 5cc1 4a3e 3a9d 883d 3019 493e
00000230: ce1c 063e 819e 653d df9c 0c3d a866 6f3e
00000240: 9793 fb3d 5b0f ba3d c80f b9bc 77b7 e8be
00000250: 18e6 00bc 17d2 723e d8a4 403d 0381 af3c
00000260: cb6b 543e e2ad c33e c722 973b b642 25bd
00000270: e270 6e3d 5d92 8f3d 6f24 c03d 9b52 99bd
00000280: b45e 633e 3307 febd f8c4 0a3e 5d7e 78bd
00000290: b353 ab3e 2b2f 953e 29dd 153e 0f13 2a3d
000002a0: a06f f03d a7e4 943d 701b 103e e05e aabc
000002b0: 9f01 b7bd 47f6 82bc 5c9e b33d 2e9e f43d
000002c0: 4baa b33d 7832 003d e728 ee3d f73a 4dbd
000002d0: 8d46 a23d f6be e43c 7cd5 13be 0401 bebd
000002e0: 38f2 9a3d 354d 133e fff3 913e 595b babd
000002f0: 1f70 403e 40dc 8ebe 7120 8d3c 4830 99be
00000300: 5fe0 c63e 5af9 993e 41b1 31bd 5492 d73d
00000310: db3e 8b3d 0a06 e33c 4993 2b3d e898 803e
00000320: ca7e a73d 2b4c 463e 64b8 3b3e 00d8 31be
00000330: 5c08 2b3e a428 413d 2a15 973d 75bb acbd
00000340: 873c cdbe b09f 123e 3bce 393e e33a 11be
00000350: 03f9 823d d3d4 8d3e 0f2f 8cbd ebe2 38be
00000360: 0ecd bc3d cf96 d73d 090d cf3e 37ee 4c3d
00000370: ea85 a93d 6e7e ba3e 4da1 0e3e 8f3f d33c
00000380: 130f dd3d aad5 b1bd 7591 823d 475f aabb
00000390: 47b7 adbd 5e6c 8e3d 3107 b43e 7c32 963d
000003a0: 932e 003e 7441 cf3d 3216 283e 54f6 bdbd
000003b0: f496 8d3b 2c58 163e 3965 76bd 1359 5dbe
000003c0: 020e 0b3e 9124 a73e f4a4 12bd 7ebd 93bd
000003d0: 57f3 94bd cbe4 043f cde9 053e be85 173e
000003e0: 121e 1abd 4715 79bb 83a2 93bd 9f89 a23c
000003f0: 84b6 ed3d ae14 afbe b294 f63e da37 7e3e

layer2.bias f4 [128]
0.010510112 -0.13973513 0.20352986 0.06356329 0.044700768 -0.053762853 0.06874998 -0.07048875
-0.029737614 0.17414153 -0.088690095 0.20913142 0.229968 -0.00893652 0.011690009 0.0042964295
-0.046338815 0.16520335 0.04754694 0.092824765 -0.08143558 0.087102 0.0031162247 -0.14406565
0.2767853 0.18599403 0.14629883 -0.06972505 0.12748328 -0.011005413 0.08263466 0.045982663
0.11142857 0.06663098 0.25405934 0.13908845 0.1816681 0.08836195 0.12612514 0.18678291
-0.013997278 0.07738087 0.1661403 0.1271542 -0.0044387053 -0.070826985 -0.0036454056 0.13373312
-0.047931746 0.015615461 0.1362326 0.13020907 -0.024023235 0.20808503 0.08567882 0.14985867
0.13602825 0.17104194 0.016334264 0.026410406 0.056254085 0.094735816 0.16750792 0.05792145
0.008420659 0.088248774 0.14862016 0.21951427 0.04783807 0.0024974293 -0.115907915 0.007866718
0.08851357 0.08963653 0.1570432 0.038504563 -0.055405594 0.0908328 0.12820052 0.03048277
0.15742214 -0.06301362 0.069134094 -0.064319186 -0.04014972 -0.060207557 -0.046872023 0.1622534
0.21164708 0.1864315 0.115362845 0.15438984 0.079705685 0.21888709 0.022521202 -0.04980904
0.039866634 0.023337541 0.15046494 0.06302508 -0.015549745 -0.012149979 0.059667204 -0.0054606325
0.25066927 0.26068652 -0.010421034 0.109439135 -0.07829911 0.019158658 -0.07991964 -0.08123026
-0.014912262 -0.06712481 -0.06899092 0.031553842 0.109457195 0.2569779 0.18077609 0.15760495
0.118860886 0.16969 -0.07215981 -0.08414619 0.098550886 0.27526727 0.21324846 -0.07863824
00000000: 9b32 2c3c ba16 0fbe 226a 503e 782d 823d
00000010: 2718 373d 7036 5cbd cacc 8c3d 685c 90bd
00000020: 4c9c f3bc 2852 323e 27a3 b5bd 8c26 563e
00000030: bb7c 6b3e 7b6a 12bc 7487 3f3c 10c9 8c3b
00000040: c5cd 3dbd 112b 293e 95c0 423d e91a be3d
00000050: b3c7 a6bd 8962 b23d 9339 4c3b f285 13be
00000060: ceb6 8d3e 3875 3e3e 5ccf 153e 02cc 8ebd
00000070: fa8a 023e 0c50 34bc 5c3c a93d 5158 3c3d
00000080: a934 e43d d375 883d 1114 823e 346d 0e3e
00000090: 3407 3a3e 1cf7 b43d f326 013e 0544 3f3e
000000a0: d754 65bc dd79 9e3d af20 2a3e b634 023e
000000b0: 8f72 91bb bd0d 91bd c2e7 6ebb 56f1 083e
000000c0: 1454 44bd fed7 7f3c 8f80 0b3e 8755 053e
000000d0: 60cc c4bc 3e14 553e 6178 af3d 8d74 193e
000000e0: fd4a 0b3e 9e25 2f3e 6fcf 853c a35a d83c
000000f0: af6a 663d da04 c23d 3287 2b3e 0b3f 6d3d
00000100: cef6 093c c6bb b43d e22f 183e 59c8 603e
00000110: daf1 433d e9ab 233b 2161 edbd 68e3 003c
00000120: 9a46 b53d 5b93 b73d efcf 203e f6b6 1d3d
00000130: faf0 62bd 8c06 ba3d ff46 033e 01b7 f93c
00000140: 4533 213e 490d 81bd 2d96 8d3d c7b9 83bd
00000150: 0874 24bd 339c 76bd e1fc 3fbd c125 263e
00000160: 03ba 583e e6e7 3e3e 5b43 ec3d 5f18 1e3e
00000170: bc3c a33d f023 603e 627e b83c 9004 4cbd
00000180: 324b 233d 5f2e bf3c 7b13 1a3e 4b13 813d
00000190: 5cc4 7ebc b510 47bc 9965 743d 1bef b2bb
000001a0: b957 803e b478 853e fcbc 2abc a021 e03d
000001b0: 495b a0bd 9ef2 9c3c e9ac a3bd 0d5c a6bd
000001c0: 8f52 74bc bb78 89bd 1d4b 8dbd 9a3e 013d
000001d0: 182b e03d 9b92 833e 5e1d 393e 3163 213e
000001e0: 566d f33d 37c3 2d3e 86c8 93bd d654 acbd
000001f0: 0cd5 c93d d5ef 8c3e ce5d 5a3e 160d a1bd

layer3.weight f4 [2, 128]
-0.052506357 -0.35962352 0.25702482 0.26405686 -0.018344466 -0.25674862 0.02650451 0.076097764
0.1830559 0.3188196 -0.11165573 0.23556785 0.32622376 -0.30370378 -0.23480937 0.27808967
-0.19771412 0.15624362 -0.049330767 0.31764388 -0.1206792 0.2608459 -0.1560324 -0.22492717
0.2869963 0.29093367 0.23769979 -0.00065754855 0.19953671 0.019139528 0.111954145 -0.20791195
0.3440687 -0.006703101 0.16785029 0.31092477 0.23252949 0.28673962 0.24158548 0.33089697
-0.21677126 0.29900765 0.30419996 0.27850154 0.02280306 -0.025249131 0.059789393 0.2997132
0.07983766 -0.32186797 0.34992203 0.28523466 0.032427244 0.30806425 -0.027912538 0.20764312
0.3010584 0.34739688 -0.015114527 -0.08168561 0.0030978096 0.2996301 0.34038553 -0.047837418
-0.020167995 0.23078357 0.26643753 0.2839102 -0.089124896 -0.14663208 -0.42014164 -0.077544086
0.21138059 0.18120287 0.26598737 -0.17370844 -0.021807887 0.29842028 0.16801621 -0.009081464
0.2728212 -0.2270122 -0.17255317 -0.057099063 -0.00972902 -0.14848873 0.035383113 0.306186
0.24871136 0.29170054 0.29992494 0.17916653 -0.12499453 0.21531315 -0.013587987 0.0807584
0.332319 -0.0405689 0.3043055 -0.08833482 -0.33996466 -0.21401566 -0.1388412 0.0602451
0.24349523 0.24954818 -0.031675186 0.2706382 -0.103170864 -0.052930962 0.08350083 0.07969592
-0.25493944 -0.041998066 0.020092549 -0.33101255 0.28668016 0.15700881 0.15725562 0.3185278
0.33698058 0.17514609 -0.029668344 -0.07893117 0.2093084 0.2818792 0.25384465 -0.40683308
-0.19986518 -0.29021654 0.17439787 0.2415762 -0.07874912 -0.26531303 -0.18241382 0.03790924
-0.19044851 0.3305238 -0.233166 0.28793323 0.29273665 0.20229872 0.2722311 0.28866214
0.11094443 0.32036033 -0.04011826 0.32549998 -0.29412302 0.26507318 -0.08975755 -0.24243541
0.13932821 0.35656098 0.24834816 0.04675502 0.20716742 -0.03576196 0.25979647 -0.16964765
0.2613769 -0.084222965 0.25647023 0.2775061 0.18870486 0.32919544 0.28112704 0.19506419
-0.03317138 0.26629624 0.2428792 0.25679973 0.003069396 -0.00998304 0.025555957 0.21230185
0.054399468 0.003539392 0.24659286 0.11061313 0.07800145 0.22033341 0.039838262 0.26440945
0.28421468 0.35079408 0.008692443 0.06037903 0.05116511 0.35708535 0.24889438 0.026361685
-0.008555811 0.3108051 0.15926494 0.26307052 0.04782919 -0.23149535 -0.19602013 -0.008694938
0.2709432 0.24165891 0.26808727 -0.02529938 -0.07313212 0.29126608 0.26515532 -0.07347763
0.36667186 -0.24558708 0.084614575 -0.082133465 0.080700494 -0.07086588 0.004279319 0.25694886
0.14520401 0.19911468 0.22664681 0.26979765 -0.1253462 0.32393527 0.012402455 -0.052047316
0.30328262 -0.03833782 0.16816758 -0.2569078 -0.27516177 0.019179106 -0.28500015 -0.16706534
0.26469314 0.25080532 -0.26029584 0.21552256 -0.16063489 -0.21543294 -0.0041452236 0.07980729
-0.17762256 -0.0041316357 -0.014862726 -0.3070299 0.28720325 0.31025997 0.30536643 0.27998257
0.13767894 0.2830345 0.018297184 0.06718094 -0.034265947 0.30441883 0.26181474 -0.30112043
00000000: e810 57bd 9320 b8be c298 833e 7632 873e
00000010: 2247 96bc 8e74 83be fc1f d93c 25d9 9b3d
00000020: 0173 3b3e 533c a33e c2ab e4bd b338 713e
00000030: cd06 a73e 107f 9bbe de71 70be c561 8e3e
00000040: 9275 4abe 54fe 1f3e 0f0f 4abd 38a2 a23e
00000050: a826 f7bd 988d 853e f5c6 1fbe 4f53 66be
00000060: 2ef1 923e 42f5 943e 9367 733e 565f 2cba
00000070: 5a53 4c3e 80ca 9c3c 3748 e53d dfe6 54be
00000080: c629 b03e b0a5 dbbb f2e0 2b3e 8831 9f3e
00000090: 361c 6e3e 89cf 923e 2f62 773e 546b a93e
000000a0: 49f9 5dbe 8817 993e 19c0 9b3e c197 8e3e
000000b0: 7ccd ba3c 44d7 cebc b9e5 743d 0274 993e
000000c0: ed81 a33d e1cb a4be fb28 b33e 470a 923e
000000d0: 6ed2 043d 99ba 9d3e d6a8 e4bc 66a0 543e
000000e0: 5424 9a3e 01de b13e eca2 77bc c94a a7bd
000000f0: 9f04 4b3b 1e69 993e 0347 ae3e 2bf1 43bd
00000100: 5a37 a5bc 8752 6c3e 806a 883e ae5c 913e
00000110: 1d87 b6bd b826 16be ce1c d7be 6fcf 9ebd
00000120: 2774 583e 3f8d 393e 7f2f 883e a0e0 31be
00000130: 74a6 b2bc 8bca 983e 710c 2c3e 6cca 14bc
00000140: 38af 8b3e e375 68be c7b1 30be b5e0 69bd
00000150: 7866 1fbc 6e0d 18be e2ed 103d 69c4 9c3e
00000160: 31ae 7e3e c659 953e c38f 993e 6e77 373e
00000170: 22fd ffbd 0d7b 5c3e 26a0 5ebc a964 a53d
00000180: b725 aa3e 932b 26bd eecd 9b3e e3e8 b4bd
00000190: d90f aebe ec26 5bbe 632c 0ebe 91c3 763d
000001a0: d056 793e 8f89 7f3e d7bd 01bd 1791 8a3e
000001b0: 3f4b d3bd 23ce 58bd 7c02 ab3d 9d37 a33d
000001c0: 6c87 82be 2a06 2cbd 2199 a43c 7a7a a9be
000001d0: bec7 923e ebc6 203e 9e07 213e 1316 a33e
000001e0: b888 ac3e 7f59 333e 070b f3bc aaa6 a1bd
000001f0: f154 563e 7852 903e edf7 813e 6d4c d0be
00000200: 75a9 4cbe 4397 94be 5b95 323e c05f 773e
00000210: 3847 a1bd 1cd7 87be b0ca 3abe b846 1b3d
00000220: ef04 43be 6a3a a93e 11c3 6ebe fc6b 933e
00000230: 94e1 953e 6527 4f3e e061 8b3e 86cb 933e
00000240: d536 e33d 4506 a43e 0b53 24bd efa7 a63e
00000250: 4b97 96be acb7 873e ced2 b7bd fd40 78be
00000260: 0eac 0e3e 298f b63e fb4e 7e3e 3182 3f3d
00000270: b223 543e 227b 12bd 0b04 853e 1db8 2dbe
00000280: 31d3 853e 177d acbd 1150 833e 4815 8e3e
00000290: d93b 413e 4e8c a83e e2ef 8f3e e8be 473e
000002a0: b7de 07bd fb57 883e 53b5 783e 417b 833e
000002b0: eb27 493b e88f 23bc ba5a d13c a865 593e
000002c0: fad1 5e3d 25f5 673b d782 7c3e 2389 e23d
000002d0: 39bf 9f3d 159f 613e 722d 233d ad60 873e
000002e0: 9684 913e 489b b33e c06a 0e3c 0050 773d
000002f0: 8292 513d e4d3 b63e 2bde 7e3e 76f4 d73c
00000300: ac2d 0cbc d921 9f3e 5916 233e 2eb1 863e
00000310: 8ae8 433d 1e0d 6dbe 80b9 48be 3775 0ebc
00000320: 11b9 8a3e 6f75 773e bc42 893e a540 cfbc
00000330: 4bc6 95bd d420 953e 70c2 873e 717b 96bd
00000340: 6abc bb3e 2e7b 7bbe 684a ad3d 9735 a8bd
00000350: 4d46 a53d 2122 91bd 8839 8c3b cd8e 833e
00000360: 5cb0 143e b8e4 4b3e 1a16 683e eb22 8a3e
00000370: c15a 00be d8da a53e ab33 4b3c 912f 55bd
00000380: dc47 9b3e 1e08 1dbd 1f34 2c3e 6b89 83be
00000390: 01e2 8cbe 801d 9d3c 8aeb 91be 2d13 2bbe
000003a0: dc85 873e 8e69 803e 7f45 85be f2b1 5c3e
000003b0: 797d 24be 749a 5cbe a8d4 87bb 0172 a33d
000003c0: b0e2 35be ac62 87bb cb82 73bc 0633 9dbe
000003d0: 4e0c 933e 65da 9e3e fd58 9c3e e059 8f3e
000003e0: b5fb 0c3e e6e9 903e fae3 953c 2996 893d
000003f0: 735a 0cbd c9dc 9b3e 950c 863e 752c 9abe

layer3.bias f4 [2]
0.054712582 0.016563345
00000000: 4d1a 603d daaf 873c
