Trained networs/target_net_multi.pth (torch, 71903 bytes, 6 tensors)

layer1.weight f4 [128, 4]
000000 54 78 ff be a2 40 f6 3e 85 dc bb 3e 1f d9 d2 be
       -0.4989649 0.48096186 0.3669168 -0.41181275
000010 37 8c ab 3e e0 9c 86 3d e5 7c cf be 84 16 90 3d
       0.33505413 0.0657289 -0.40524974 0.070355445
000020 67 44 88 3e 84 bb 30 3e 72 39 e7 3e 40 25 b2 3d
       0.26614687 0.17259032 0.45161015 0.08698511
000030 1c 6b 16 be 16 a2 0c 3e e8 f5 0e bf 89 53 8b 3e
       -0.14689296 0.13733706 -0.55843973 0.2721217
000040 6c d5 6f 3e 9b 25 e0 bb 9c d1 f2 bc ce 49 97 bd
       0.23421258 -0.0068404204 -0.029640965 -0.07387124
000050 2a f1 c8 be ab e1 aa be 98 2d c2 be c6 5a e9 be
       -0.39246494 -0.33375296 -0.3792541 -0.45577067
000060 d1 40 05 bf 1e 58 99 bd e4 7d 17 3f c7 4c 84 be
       -0.52052027 -0.0748751 0.5917647 -0.25839826
000070 e6 61 d8 bd ab e5 d3 3e a9 68 25 3f 9d 6d ad 3e
       -0.10565548 0.4138616 0.64612824 0.3387269
000080 7a 75 b2 3e ad 0a f5 be f1 c1 9f be a6 a0 1a be
       0.34855253 -0.47859707 -0.31202653 -0.15100345
000090 f8 b4 ed be 1c 15 cc be 19 ea 59 bd e2 91 9b 3e
       -0.4642713 -0.39859855 -0.05320177 0.30384737
0000a0 88 81 32 3e 6d 8e a6 3e da d1 2b be 5f 5e a6 3e
       0.17432225 0.32530537 -0.16779271 0.32493874
0000b0 95 5b c8 be d8 0c 93 3e b2 79 29 3f 6a 21 d2 3e
       -0.39132372 0.28720737 0.6620132 0.41041118
0000c0 93 38 03 3f 0a 55 0d 3f d8 31 87 be b5 0d aa bc
       0.512582 0.55207884 -0.26405215 -0.02075849
0000d0 56 5a f5 bd 4a 08 a6 be ca 20 95 3d 62 3d a0 3e
       -0.11980121 -0.324282 0.07281645 0.3129683
0000e0 52 57 33 3e 2c a2 0c bf 44 87 8f 3e ce 5f d0 3e
       0.17513779 -0.54934955 0.28032887 0.40698093
0000f0 7f 77 cf 3e 18 ec 0a 3e 41 62 c5 be 0f 62 e7 be
       0.40520856 0.13566625 -0.38551524 -0.45192
000100 b0 1f dc be 73 fc cd 3e 40 5e 69 3e 58 d4 ed be
       -0.42992926 0.40231666 0.2278986 -0.46451068
000110 d7 b4 56 be ea ca ac be ad e6 c8 be 4a ba 77 3e
       -0.20967422 -0.3374856 -0.39238492 0.24192157
000120 54 ff b0 be 52 93 9f 3e 1b 73 f4 3c 1d fe 63 3e
       -0.345698 0.31167084 0.029840043 0.22264905
000130 be 29 c3 be 52 fc 02 3f a2 e2 62 3e e3 b6 9c 3e
       -0.38117784 0.5116626 0.22156766 0.30608281
000140 cd 18 87 3c 8f 56 fd be fa 46 88 3e 83 0f e8 3e
       0.016491318 -0.494801 0.2661665 0.45324335
000150 95 6c 00 be 7c 2e 71 bc c3 c9 21 bf 8a 34 51 be
       -0.12541421 -0.014720555 -0.6319849 -0.20430198
000160 ed d9 d9 3b 49 7e db 3e 74 f2 bc 39 9f 3a 97 be
       0.006648293 0.42869785 0.00036038796 -0.29536912
000170 75 06 d9 bd 92 e5 dd 3e c9 8b 34 3f 8c dc bf be
       -0.10596935 0.4333921 0.70525795 -0.3747295
000180 e5 e1 28 bf b3 99 5e 3c d6 5b e7 3e 2d a7 21 3e
       -0.6596969 0.013586449 0.45187253 0.15786429
000190 97 53 ca be f7 08 01 be 9b 23 71 bf a5 a9 bf bd
       -0.395169 -0.12601076 -0.94194955 -0.09358529
0001a0 f9 13 14 3f f6 f6 c3 3e e1 2c a5 be 8f 10 82 3e
       0.57842976 0.38274354 -0.32260802 0.25403258
0001b0 10 9c 97 3e ea 34 0b 3e 80 cb 94 be 08 75 24 bd
       0.29611254 0.13594404 -0.29061508 -0.040150672
0001c0 70 a3 21 be b2 0d 85 be 1b de 79 3e 82 f1 44 3e
       -0.15785003 -0.2598701 0.24401133 0.19232753
0001d0 83 c5 bc 3e d1 d6 fe 3e b7 71 a5 be 9b e8 87 bd
       0.3686944 0.49773267 -0.3231332 -0.06636163
0001e0 7f bf 8d bd c9 5c 80 bd 64 84 0c 3e b4 88 d8 3e
       -0.069212906 -0.06267697 0.13722378 0.42291796
0001f0 fe 16 aa 3d a6 b8 02 3e 3c e1 8b 3d 24 9b 22 bd
       0.08305167 0.1276575 0.068300694 -0.039698735
000200 13 56 2a bf a9 96 f4 be 00 2b db 3e eb 32 e0 bd
       -0.6653759 -0.47771195 0.42806244 -0.10947212
000210 9c 9f b3 3e b7 4e 1f bd 2f 8c 65 be 3d 00 69 3e
       0.3508271 -0.038893428 -0.22416757 0.22753997
000220 39 64 ec be d1 be c7 3d 7f b9 13 3f 6a fb af 3e
       -0.46170214 0.09753192 0.5770492 0.343715
000230 23 70 37 be 49 14 46 3e 90 50 33 be b1 14 4b 3e
       -0.1791387 0.19343676 -0.17511201 0.19832112
000240 c6 19 ba be 3d 0e 09 bf f8 90 9d 3e 52 a4 54 be
       -0.3634779 -0.5353735 0.30774665 -0.20765808
000250 00 ef d3 3e 64 a1 ab 3e d5 35 37 bf b5 4e 8b be
       0.4139328 0.3352157 -0.71566516 -0.27208486
000260 f4 a1 1a 3e aa dc cb be 6e 75 00 bf 61 95 b5 3e
       0.15100843 -0.3981679 -0.50179183 0.3546553
000270 77 99 52 3f b5 20 03 3f 9f be 19 bf 21 31 d1 be
       0.8226542 0.5122178 -0.6005649 -0.40857795
000280 e2 46 28 3f 0b bd 9f bd 32 c0 21 bf b8 fe ec be
       0.6573316 -0.07799729 -0.6318389 -0.46288085
000290 72 79 2d 3e af 79 82 be db 57 c3 be 7c ca 05 be
       0.16940859 -0.25483462 -0.38152966 -0.13065523
0002a0 49 b3 6c 3b c9 f2 37 be e3 5e b8 3e 97 2b af 3e
       0.0036117604 -0.17963709 0.36009893 0.34212944
0002b0 09 6d f8 3c 90 62 b2 bd 9f ac c1 3e 5f 03 8d be
       0.03032543 -0.087102056 0.37827012 -0.27541634
0002c0 2c bd c3 3d c1 65 8e 3e 37 6a 16 3e 43 43 7d 3d
       0.09557566 0.27812007 0.14688955 0.061831724
0002d0 f9 9a e6 3e 17 47 de be 17 1b 94 3d d9 62 16 be
       0.4504011 -0.43413612 0.072317295 -0.14686145
0002e0 5f fe 61 bd bf 2e 40 be 0d 6c 1e 3b b4 ef 0e 3f
       -0.055174228 -0.18767832 0.002417329 0.5583451
0002f0 88 f5 f6 bd 9e 5c cb 3e 7b 23 02 bf 39 fa 01 bf
       -0.1205855 0.397191 -0.5083539 -0.50772434
000300 fb 4c 05 3d f6 c0 11 be 7e 2e 9d be 98 c2 b4 3d
       0.032544117 -0.14233765 -0.30699533 0.08826178
000310 e1 33 e2 bd 4f 90 6b be 4d 69 27 be cc f3 ed 3e
       -0.11045051 -0.23004268 -0.16348763 0.46475065
000320 dc 00 b0 3e d0 e8 aa 3e 19 ee 1a 3f 20 5a be 3e
       0.34375656 0.33380747 0.6051956 0.37178135
000330 4e cc 08 3e ef 34 03 3e 74 11 04 bf cd 07 da 3e
       0.13359186 0.12813161 -0.5158913 0.42584077
000340 d6 0e a4 3e 22 36 5f 3e ca d3 94 be 34 48 c6 be
       0.3204257 0.21797994 -0.29067832 -0.38726962
000350 29 16 ef be 79 69 cf 3e a1 55 c1 bd ec be cc be
       -0.46696594 0.40510157 -0.094401605 -0.39989412
000360 5b 29 22 3e 70 01 a0 3b b3 d3 45 3f 90 9b 53 be
       0.15836088 0.004882984 0.7727615 -0.20664811
000370 55 a7 4a 3e 44 1a 9f 3d dd 7c a5 be 9f 9f 55 3c
       0.19790395 0.07768682 -0.32321826 0.013038545
000380 6b 56 8d 3e e4 9c bf be 95 bc ae bd b0 c6 79 bd
       0.27604994 -0.37424386 -0.08532063 -0.0609805
000390 71 4c af 3e e3 cb 00 3e 4b 77 6d be 8e eb 47 be
       0.34238008 0.12577777 -0.23190038 -0.1952345
0003a0 4b ee df 3e 91 a5 5f 3c 8f 0a 59 bf 71 2d e9 be
       0.4373649 0.013650314 -0.84781736 -0.45542482
0003b0 80 4a 93 3e 9b e8 55 3c 38 b8 cd 3e 42 68 75 be
       0.28767776 0.013055946 0.4017961 -0.23965552
0003c0 e8 1b 94 bd 53 22 0c be 18 fa 06 be 85 88 06 bf
       -0.07231885 -0.13684969 -0.1318134 -0.5255206
0003d0 4e 47 bd be 50 e7 dd 3e 03 e2 23 3f 3a fd af 3d
       -0.36968464 0.4334054 0.6401674 0.08593221
0003e0 b8 73 7e be e4 08 e9 3e d5 5b b9 3e 81 1a 86 be
       -0.2484883 0.45514596 0.36202875 -0.26192096
0003f0 d1 6f 19 be 5f 5c c2 3e b4 df 27 be 4e 0b 8a 3e
       -0.14984061 0.379611 -0.1639393 0.2696175

layer1.bias f4 [128]
000000 09 dc 9b 3e 46 7b 8b 3e 4e f0 0b 3f 7f 46 98 3e
       0.3044131 0.27242488 0.5466355 0.29741284
000010 6b 1a f7 be d0 f1 d5 be 04 51 1f 3f ad cd 30 3f
       -0.48262343 -0.4178605 0.62232995 0.69063836
000020 e2 0b d4 3e 3b ed b2 be 5a f2 79 be 52 15 dd be
       0.41415316 -0.34946617 -0.24408856 -0.4318033
000030 82 05 cb be e3 f5 22 3e b0 6d 0f bc 4e 56 00 bf
       -0.3965264 0.15914111 -0.008754179 -0.5013169
000040 fb b8 31 be ea 1b 06 3f 72 08 a6 be ef d9 a2 3e
       -0.1735572 0.52386343 -0.32428318 0.31806895
000050 7f 72 ac be 6e bd 6d be 06 50 93 3e 0b b4 8f 3e
       -0.33681104 -0.23216793 0.2877199 0.2806705
000060 14 72 84 be f2 f5 c7 bd 8e df 84 3b f0 30 05 3f
       -0.25868285 -0.09763707 0.00405497 0.520278
000070 0b de 36 be 97 be 57 be d1 29 95 3e d2 84 0a 3f
       -0.1785814 -0.21068798 0.29133466 0.5410892
000080 09 f2 4f be 14 4c 44 3f 1f 37 c9 be 4c 42 30 3f
       -0.20307173 0.76678586 -0.39299867 0.6885116
000090 7a a2 68 be 5b bb 13 bf 1d fb 16 3f 41 e1 43 be
       -0.2271823 -0.57707757 0.5897692 -0.19128896
0000a0 2e fe 84 be 66 da ac 3e e9 18 b5 be 42 89 3d 3f
       -0.25975174 0.33760375 -0.35370567 0.74037564
0000b0 b8 e1 0b 3f 26 ab c5 3e cc 18 cb 3d 25 3a 68 3e
       0.54641294 0.38607138 0.09916839 0.2267843
0000c0 6c 2b 8b 3e db 43 2d 3f 33 b4 3d be 52 8e 8d 3e
       0.27181566 0.67681664 -0.18525772 0.27647644
0000d0 21 d8 83 3e 5f c8 02 3f 4d d2 ae 3e a8 c7 cf 3e
       0.2575083 0.5108699 0.34144822 0.40582013
0000e0 02 5f 81 3e 7d 8a 89 be 8b a1 f4 be c3 b0 c1 3e
       0.25267798 -0.2686347 -0.47779498 0.3783017
0000f0 e4 f2 ca be 52 ea 03 3f aa 82 c8 3e 44 df a9 3e
       -0.39638436 0.5152942 0.3916219 0.3317815
000100 8e 59 ed be 63 bd 89 3e d4 fc 70 3e 67 b7 08 bf
       -0.46357387 0.26902303 0.23533946 -0.5340485
000110 a2 e5 fa be 73 19 1a 3f 9c d1 af be 3c 7b a5 be
       -0.4900332 0.6019508 -0.34339607 -0.32320583
000120 df 41 5f be 2c 8d 5f bd c1 fd da be b6 e9 16 3f
       -0.21802472 -0.05457799 -0.42771724 0.58950365
000130 cb fb 0e be a6 06 34 3e 77 03 e8 bd a8 2a 11 3f
       -0.13963239 0.17580661 -0.11328786 0.56705713
000140 06 1f f7 3e df fc f4 bd 37 20 f3 be b9 7f c3 3e
       0.48265857 -0.11962294 -0.47485515 0.38183382
000150 d0 b1 20 3f 7a 8b 15 bf 07 42 2e 3f 24 2e 33 3f
       0.6277132 -0.5841595 0.680695 0.6999228
000160 89 0f db 3d a8 98 04 bf 3b 8b 71 be 25 15 96 3e
       0.106963225 -0.51795435 -0.23588268 0.29313007
000170 38 0a d2 be 14 0e 8e be ea 0b d5 be 2f ec 95 bc
       -0.4102342 -0.27745116 -0.41610652 -0.018301098
000180 28 a8 eb bc 08 1a f4 3d d1 05 7d 3e 26 6d c2 3e
       -0.028766707 0.119190276 0.2470925 0.379739
000190 e4 6e ce 3e ca 32 5c be bd ae 60 be 4e 16 67 3d
       0.40318978 -0.2150375 -0.21941657 0.056417756
0001a0 73 c6 98 be 42 bb 9b 3e 59 84 43 be 43 31 80 3e
       -0.29838905 0.30416304 -0.19093455 0.25037584
0001b0 f2 08 09 3f a0 75 8c 3d 80 ad 1c 3f 83 62 39 3f
       0.53529274 0.06858373 0.6120224 0.7241594
0001c0 18 92 c5 3e 0a da a3 be f8 13 8f 3d d7 fa 74 3e
       0.38588023 -0.32002288 0.069862306 0.23923813
0001d0 60 fc b3 be f3 30 1d be 55 ed b5 be 65 43 a4 3e
       -0.35153484 -0.15350704 -0.35532632 0.32082668
0001e0 1c 49 b9 3e b4 95 8d 3e d8 38 92 3c 6d 50 ef 3e
       0.3618859 0.27653277 0.01784937 0.46741048
0001f0 50 59 01 3f 46 22 af 3e fb 71 a3 be 6a 50 cc be
       0.50526905 0.34205836 -0.31922898 -0.399051

layer2.weight f4 [128, 128]
000000 5e 42 9f 3c 24 c3 18 be 81 05 a3 bc 2e f2 6a bd
       0.019440826 -0.1491819 -0.019900085 -0.057359867
000010 8c 5a 9b 3d 5d c7 25 3e ce 46 aa 3d da ce 8a bc
       0.0758563 0.16189332 0.08314286 -0.016944338
000020 34 a5 cb 3d 8c 80 2c 3e 8f f6 9e 3d 68 ca a4 bb
       0.09943619 0.16845912 0.07761871 -0.0050290115
000030 a0 b3 ac bc bf 84 eb 3d 32 5c 8a bd 04 c1 86 3d
       -0.021081746 0.11499929 -0.06755866 0.065797836
000040 e2 14 1c 3d c5 0b da 3c d8 b3 91 3d 6f cc e3 bd
       0.038105853 0.02661694 0.071143806 -0.11122977
000050 e1 78 cc bc c8 fc f7 bb 0f cf 26 3d 46 e5 c6 bc
       -0.024959983 -0.0075679757 0.04072481 -0.024279248
000060 72 4f 65 3e cc 3e 82 3e f3 28 a0 3b 19 90 ce bd
       0.22393587 0.25438535 0.004887694 -0.10086078
000070 b6 0a 5f 3e 13 b4 c2 bc 4e 5a ba 3c 66 29 94 3d
       0.2178143 -0.023767507 0.022748139 0.072344586
000080 db fa f9 3d 64 10 ea 3a 13 6d cf bc ed 7b cb bc
       0.1220605 0.0017857668 -0.025320565 -0.024839366
000090 e9 a3 51 3e 96 66 6e bd ca aa 1b 3c 07 28 f8 3c
       0.20472683 -0.058203302 0.0095011685 0.030292524
0000a0 b6 65 b0 bd 8b ac d6 bc e7 5b f0 bd ad d8 ed bc
       -0.0861315 -0.026205322 -0.11736279 -0.029033983
0000b0 f9 6e d5 bd bc a8 fc bc 57 96 3f 3d 33 d2 0b 3d
       -0.10421557 -0.030842178 0.046774235 0.03413601
0000c0 1b 47 31 3d f6 40 54 bd 05 57 80 bd f0 2a 3c be
       0.043280702 -0.051819764 -0.06266598 -0.18375754
0000d0 07 12 2e bd 79 8a 3a 3c 91 d3 b9 bd 74 ff af bb
       -0.04249766 0.0113855535 -0.09073556 -0.0053710286
0000e0 96 bf 92 3d 00 08 12 bc a1 25 59 3d d0 b7 e3 ba
       0.07165448 -0.00891304 0.0530144 -0.0017373506
0000f0 4d cf 50 bd 63 4a 4e 3d fa 0b ba 3c 37 59 91 bb
       -0.050978947 0.05036391 0.022710789 -0.004435684
000100 99 c9 e2 3b cb 95 35 3d 10 dd fd bc 78 34 69 bd
       0.006921005 0.044332307 -0.0309892 -0.056934804
000110 d7 a9 fa 3c 9e 12 a2 3d 3f 7a ff bc 72 21 05 3e
       0.030598564 0.07913707 -0.031186221 0.1300104
000120 2d b6 5b be 45 5f a8 3d ce 80 38 3e 69 fa c3 bd
       -0.21456213 0.08221296 0.18017885 -0.09569246
000130 f9 5d 0b 3e 19 f9 ff 3d f8 5b a9 be 4d 22 d1 b7
       0.13610066 0.124986835 -0.3307798 -2.4930714e-05
000140 74 b5 60 bd 6c 9b 46 3e ab 56 06 bd 52 0a 28 bd
       -0.054860547 0.19395226 -0.032797497 -0.041025467
000150 82 8d dd 3c 3c a9 b7 bd 66 e9 e7 bc 20 6a b2 bd
       0.027045015 -0.08967826 -0.028309535 -0.08711648
000160 d4 78 df bd ce bf c5 3e 24 4d 54 3e a2 3e dd 3d
       -0.10911718 0.38622898 0.20732552 0.10802962
000170 cc 47 d6 bd b5 64 5b 3e 2e 35 a8 bd f6 6e 94 be
       -0.10462913 0.21425135 -0.08213268 -0.28990906
000180 4f fe 38 3e c5 53 45 3b 31 0b f5 3d 9f 4c 1e be
       0.18065761 0.0030109745 0.11965025 -0.15458916
000190 1e 60 b9 3b e3 ac 33 3d e9 37 95 3d c6 d9 78 3c
       0.00565721 0.04386605 0.07286055 0.01518864
0001a0 12 73 22 bd 67 04 5b 3d 20 4a 97 3d 44 32 11 3d
       -0.03966052 0.053470995 0.07387185 0.035448328
0001b0 f6 4f 7c 3d 24 2f cd 3d 00 e1 3a 3c ac f5 11 bb
       0.061599694 0.10018757 0.011406183 -0.0022271676
0001c0 0a 8e 6c 3d 97 a2 e5 bb 60 c1 a1 3d 9e bf 47 bc
       0.057752647 -0.0070079076 0.078982115 -0.012191681
0001d0 b1 92 e3 3c 11 14 dc 3d 68 cf 48 3e ae 3f 35 3d
       0.027779909 0.10746015 0.19610369 0.044250183
0001e0 b1 f7 46 3d 7a 6c 54 be 04 03 e0 3c 24 05 1b bd
       0.04857606 -0.20744506 0.027345188 -0.0378467
0001f0 78 36 d5 3d 65 66 4a be 8d 3a c1 bc a4 8a 35 bd
       0.1041078 -0.19765623 -0.02358749 -0.04432167
000200 ba f9 cd bc 96 47 4d bc 36 4f ef bd 83 51 94 3c
       -0.025143493 -0.012529274 -0.1168503 0.018105274
000210 7c 54 31 3c f8 c9 b3 3e 9f a3 d6 3c 93 3d cb be
       0.010823365 0.35115027 0.026201067 -0.39695415
000220 d7 fa a3 3d d8 3c 4b 3e 42 a4 88 3d 57 23 49 3e
       0.08006828 0.19847429 0.06671955 0.19642387
000230 d6 23 06 3e a1 a1 61 3d ca 30 0a 3d 46 74 6f 3e
       0.13099608 0.055085782 0.033737935 0.23384199
000240 ba 4e fb 3d 08 7f b6 3d 2a 19 b9 bc 54 f9 e8 be
       0.12270875 0.08910948 -0.022595007 -0.45502722
000250 cb ab 06 bc 10 c5 73 3e ba ac 3e 3d d3 42 ab 3c
       -0.00821967 0.23805642 0.046551444 0.020905888
000260 34 c5 55 3e e3 72 c3 3e 0d 2a 97 3b 64 37 2c bd
       0.20876008 0.3817359 0.004613167 -0.042045012
000270 9d df 6e 3d fb 9b 8f 3d 1e dd bd 3d 89 64 9d bd
       0.058318723 0.07012173 0.092706904 -0.07685191
000280 95 07 63 3e 7b 66 01 be 84 cb 0a 3e 75 54 81 bd
       0.22170861 -0.1263675 0.13554198 -0.06314937
000290 ed 40 ab 3e 20 37 95 3e b2 36 14 3e 20 21 2a 3d
       0.33447972 0.2914362 0.1447399 0.041535497
0002a0 91 7e f0 3d 8e e0 90 3d 34 2d 10 3e 52 74 b9 bc
       0.117428906 0.070740804 0.14079744 -0.022638474
0002b0 1c f3 ba bd ce 21 97 bc f8 3e b2 3d 5d bc f3 3d
       -0.09128401 -0.018448737 0.087034166 0.11901162
0002c0 2e 6b af 3d 24 3d f3 3c 63 35 ee 3d 43 03 50 bd
       0.08565365 0.02969224 0.116312765 -0.05078436
0002d0 0e 71 a1 3d de 5c dd 3c 9a 26 15 be 62 5f c2 bd
       0.078828916 0.027021822 -0.14565507 -0.09490849
0002e0 50 17 97 3d ad 55 13 3e 49 fc 91 3e 38 a4 bc bd
       0.073774934 0.14388151 0.2851279 -0.0921101
0002f0 c4 11 41 3e a9 e3 8f be b9 09 87 3c cd b5 99 be
       0.18854433 -0.28103378 0.016484128 -0.30021515
000300 de bb c7 3e 7d eb 98 3e fc 94 37 bd 0c 9c d7 3d
       0.3901052 0.29867163 -0.044819817 0.105278105
000310 b8 65 8b 3d 55 5f d4 3c e1 9b 2b 3d 67 b8 80 3e
       0.06806511 0.025924364 0.041896705 0.25140688
000320 ba 9c a7 3d 1d bb 45 3e c6 06 3f 3e 6a 30 34 be
       0.0818419 0.1930966 0.18654928 -0.17596593
000330 fe a3 2a 3e 41 af 3c 3d d1 36 97 3d ea c3 b0 bd
       0.1666412 0.046065573 0.07383502 -0.08631118
000340 6d 6b ce be 83 fb 11 3e a2 d7 39 3e ae 64 13 be
       -0.40316334 0.142561 0.18148664 -0.14393875
000350 99 11 81 3d db db 8d 3e 76 a0 8e bd 3e 5f 3b be
       0.063021846 0.277068 -0.06964199 -0.18298051
000360 8f d7 bc 3d eb 69 dc 3d da f1 ce 3e 97 29 45 3d
       0.09220802 0.1076239 0.40418893 0.048135366
000370 d4 90 a9 3d c9 6a ba 3e 55 a8 0e 3e e5 a2 d1 3c
       0.08279577 0.36409596 0.13931401 0.02559037
000380 8c c6 db 3d 2d 5a b4 bd a2 ae 7e 3d 38 86 ba bb
       0.10731229 -0.08806262 0.06217826 -0.0056922697
000390 fc 5e b0 bd 66 73 8e 3d 4b eb b3 3e 86 b9 95 3d
       -0.08611867 0.06955604 0.35140452 0.073107764
0003a0 37 36 00 3e 72 a1 cc 3d dc fb 27 3e de 78 bf bd
       0.12520681 0.09991731 0.1640467 -0.093492255
0003b0 dd 17 34 3b 22 19 15 3e bf b8 7d bd db df 5f be
       0.0027480044 0.14560369 -0.061943766 -0.21862738
0003c0 1f 02 09 3e 29 2d a7 3e 47 b2 14 bd 24 de 93 bd
       0.13379715 0.32651642 -0.03630283 -0.07220104
0003d0 24 fb 94 bd 89 e4 04 3f b4 e0 05 3e 74 3a 16 3e
       -0.07274464 0.51911217 0.13073999 0.14670736
0003e0 12 ba 1f bd 6b 5a 8a bb 44 3e 94 bd 29 e1 94 3c
       -0.03899581 -0.0042222044 -0.07238439 0.018173771
0003f0 1f 8b e9 3d a0 1e b0 be 33 a1 f6 3e 1f 45 7e 3e
       0.11403488 -0.34398365 0.4816986 0.24831055

layer2.bias f4 [128]
000000 5f a5 29 3c 62 79 11 be 77 e7 4f 3e ad 2f 81 3d
       0.010354369 -0.1420646 0.2030314 0.063079216
000010 4d 2a 37 3d be 26 5b bd ab 8e 8d 3d 2e 64 90 bd
       0.044718076 -0.053503744 0.069119774 -0.07050358
000020 74 e1 f4 bc d3 e1 31 3e 23 ac b5 bd a0 9e 55 3e
       -0.02989266 0.17371301 -0.08870723 0.20861292
000030 13 07 6b 3e aa 45 14 bc f1 b4 42 3c 1b 25 8b 3b
       0.22951917 -0.009049812 0.01188396 0.0042463667
000040 d2 0f 3e bd b2 76 28 3e dd ab 42 3d 3a 2f bd 3d
       -0.046401806 0.16451529 0.047527183 0.092375234
000050 50 29 a7 bd 81 5e b2 3d 2b 5b 4c 3b c0 8d 13 be
       -0.081621766 0.087094314 0.003118227 -0.14409542
000060 f3 78 8d 3e 33 d8 3d 3e f8 2a 15 3e 0a d3 8e bd
       0.2763134 0.18539505 0.14567173 -0.06973846
000070 3c 43 02 3e 68 59 34 bc 71 71 a8 3d a1 f4 3b 3d
       0.1272096 -0.011007644 0.08224762 0.045887593
000080 04 a5 e3 3d db 7c 88 3d 99 bd 81 3e 2a 65 0e 3e
       0.111154586 0.06664439 0.25339964 0.13905779
000090 d4 88 39 3e 6d f0 b5 3d 20 80 00 3e e0 bf 3e 3e
       0.18118602 0.08883748 0.12548876 0.18627882
0000a0 c5 5f 66 bc 9b 88 9d 3d 97 15 2a 3e 04 af 02 3e
       -0.014060919 0.07692071 0.16609798 0.12762076
0000b0 58 7a 91 bb 86 15 91 bd 3c f4 6e bb e1 5f 08 3e
       -0.0044396333 -0.070841834 -0.0036461493 0.13317825
0000c0 3c 5e 44 bd 0d d5 81 3c 72 7c 0b 3e d5 dd 04 3e
       -0.04794143 0.01584866 0.13621691 0.12975247
0000d0 88 d6 c4 bc 5a 88 54 3e c0 81 af 3d c0 c8 18 3e
       -0.024028078 0.20755139 0.0856967 0.1492033
0000e0 df ae 0a 3e 22 40 2f 3e 77 d6 85 3c 97 94 d9 3c
       0.1354327 0.17114308 0.016337616 0.026560111
0000f0 6a 76 66 3d 80 38 c2 3d a3 1f 2b 3e 8a 4b 6d 3d
       0.056265272 0.09483433 0.16711287 0.057933368
000100 d6 fd 09 3c b4 f3 b3 3d 78 a4 17 3e 69 37 60 3e
       0.008422336 0.08786717 0.14808834 0.21896137
000110 ff cd 43 3d 2a cd 16 3b a5 c0 f1 bd 70 ea 00 3c
       0.047803875 0.002301047 -0.11804322 0.007868394
000120 04 29 b4 3d d7 93 b7 3d 8a 39 21 3e 5c 9a 1d 3d
       0.087968856 0.08963745 0.15744606 0.038477287
000130 ad fc 62 bd 6d ee b8 3d cf dd 02 3e 47 c4 f9 3c
       -0.05541675 0.09029851 0.12779926 0.0304891
000140 a2 37 21 3e b4 d5 80 bd 4f 96 8d 3d cf c0 83 bd
       0.15743878 -0.06290761 0.06913435 -0.0643326
000150 a0 7c 24 bd ad 82 76 bd 09 07 40 bd 89 90 25 3e
       -0.040157914 -0.060183216 -0.04688171 0.16168417
000160 3a 32 58 3e 95 8d 3e 3e db 25 ec 3d 42 cc 1e 3e
       0.2111291 0.18608697 0.11530658 0.15507606
000170 6b c8 a1 3d bd 7c 5f 3e c3 87 b8 3c 7e 0f 4c bd
       0.07899555 0.21824928 0.022525674 -0.049819462
000180 f3 10 23 3d 85 38 bf 3c f2 d4 19 3e e8 09 81 3d
       0.039811086 0.02334238 0.15022638 0.063007176
000190 9f 72 8e bc d3 81 42 bc f7 ce 71 3d 1c 94 a5 bb
       -0.01738864 -0.011871773 0.059035268 -0.0050530564
0001a0 c3 09 80 3e 8a 2b 85 3e 68 ae 25 bc ae 22 e0 3d
       0.25007448 0.2600978 -0.0101123825 0.109441146
0001b0 ad 8c a0 bd 70 bd 9e 3c 81 b5 a3 bd a5 64 a6 bd
       -0.07839332 0.01937744 -0.079936035 -0.08124665
0001c0 e6 5b 74 bc c3 7f 89 bd 25 52 8d bd 36 90 00 3d
       -0.014914488 -0.06713822 -0.069004335 0.03138753
0001d0 c4 23 e0 3d 4a 3b 83 3e e4 6a 38 3e a4 cd 20 3e
       0.10944322 0.2563117 0.18009526 0.15703446
0001e0 50 7b f2 3d 3e 34 2d 3e 50 d0 93 bd 6e 5d ac bd
       0.11839926 0.1691446 -0.07217467 -0.08416258
0001f0 52 a5 c9 3d 21 a4 8c 3e dc bf 59 3e 1b 1f a4 bd
       0.098459855 0.2746897 0.21264595 -0.080137454

layer3.weight f4 [2, 128]
000000 f8 12 56 bd 55 ac b8 be 50 53 83 3e 54 e4 86 3e
       -0.052264184 -0.3606898 0.256495 0.26346076
000010 17 fa 97 bc 3d 14 83 be 46 63 db 3c f5 e0 9b 3d
       -0.01855187 -0.25601378 0.026780736 0.076112665
000020 d6 1f 38 3e d3 ec a2 3e 9d fe e3 bd fa ac 70 3e
       0.17980894 0.31821308 -0.11132548 0.23503485
000030 ba b7 a6 3e 07 98 9b be a9 b5 72 be 05 a3 8d 3e
       0.32562047 -0.30389425 -0.2370211 0.27663437
000040 c0 52 4a be cf 67 1f 3e 1f ff 48 bd a1 54 a2 3e
       -0.19758129 0.15566944 -0.049071427 0.31705192
000050 75 92 f6 bd 0f d3 84 3e 16 3f 1f be 05 5f 66 be
       -0.12039653 0.25942275 -0.15551409 -0.22497185
000060 19 a9 92 3e af b6 94 3e 78 cb 72 3e ee 67 2c ba
       0.28644636 0.29045627 0.2371043 -0.0006576766
000070 92 b6 4b 3e 53 d2 9c 3c d9 05 e4 3d f1 52 54 be
       0.19893864 0.01914326 0.11133928 -0.20734765
000080 2b d5 af 3e 6a b1 db bb 29 56 2b 3e 71 74 9e 3e
       0.34342322 -0.006704499 0.16732086 0.30948213
000090 0f 81 6d 3e 2a 2f 92 3e af cb 76 3e 51 21 a9 3e
       0.23193763 0.28551608 0.24101137 0.3303323
0000a0 7f 92 5d be bd c9 98 3e ae fc 9a 3e 3b 3f 8e 3e
       -0.21637915 0.29841414 0.30270904 0.27782616
0000b0 de d6 ba 3c 32 e2 ce bc 3b f2 74 3d 36 32 99 3e
       0.022807535 -0.025254343 0.05980132 0.2992112
0000c0 85 8a a3 3d 0c 94 a4 be 38 de b2 3e d6 ca 91 3e
       0.07985405 -0.321442 0.34935164 0.28475064
0000d0 76 d9 04 3d 37 78 9d 3e 8a b4 e4 bc c6 10 54 3e
       0.03243395 0.3075578 -0.027918119 0.20709524
0000e0 39 db 99 3e 3f 29 b1 3e 72 af 77 bc ed b5 a7 bd
       0.30050066 0.3460178 -0.015117513 -0.081889965
0000f0 c6 0e 4b 3b cb be 98 3e a2 fa ad 3e 53 fb 43 bd
       0.0030984147 0.29833063 0.3398028 -0.047847103
000100 f2 3f a5 bc 69 b9 6b 3e 22 29 88 3e 87 10 91 3e
       -0.020172093 0.23019947 0.26593882 0.28332922
000110 a2 90 b6 bd 99 c8 15 be 6f a8 d7 be 05 d8 9e bd
       -0.08914305 -0.14627303 -0.42120692 -0.07756046
000120 4c da 57 3e 39 36 38 3e 94 da 87 3e 29 95 31 be
       0.21079367 0.17989434 0.2653395 -0.17342056
000130 d0 af b2 bc 4d 84 98 3e 6b 6e 2b 3e 34 d2 14 bc
       -0.02181235 0.29788437 0.1674134 -0.009083319
000140 75 de 8a 3e c0 d9 67 be f4 bc 30 be 3a ed 69 bd
       0.27122846 -0.22641659 -0.1725958 -0.057111003
000150 0e 6f 1f bc f4 dd 16 be b0 f5 10 3d 61 76 9c 3e
       -0.009731067 -0.14733106 0.035390556 0.30559066
000160 a4 24 7e 3e 32 08 95 3e ad cd 98 3e 47 5e 36 3e
       0.24818665 0.29107815 0.29844418 0.17809401
000170 49 b9 ff bd 62 eb 5b 3e e0 ab 5e bc 41 6d a5 3d
       -0.12486512 0.2147651 -0.013590783 0.08077479
000180 ee 60 a9 3e 2b 34 26 bd b4 a6 9a 3e f3 88 b4 bd
       0.33081764 -0.040577095 0.3020531 -0.088151835
000190 0c 86 ae be d3 56 59 be 41 8f 0d be f6 27 77 3d
       -0.34086645 -0.21224527 -0.13824178 0.060340844
0001a0 42 d0 78 3e a2 fa 7e 3e 2b 22 ff bc bd d7 89 3e
       0.24298194 0.24900296 -0.031144222 0.26922408
0001b0 7a 38 cf bd 33 6b 51 bd 14 0b ab 3d 35 40 a3 3d
       -0.10118194 -0.051127624 0.08351722 0.07971231
0001c0 74 8e 82 be c2 0e 2c bd b9 a1 a4 3c f1 80 a9 be
       -0.25499308 -0.04200626 0.020096647 -0.33106187
0001d0 47 ec 91 3e 85 35 20 3e a6 76 20 3e 6f cd a2 3e
       0.28500578 0.15645416 0.15670261 0.31797358
0001e0 73 41 ac 3e 86 a8 32 3e 8b 17 f3 bc 42 af a1 bd
       0.33643684 0.17447099 -0.029674312 -0.07894756
0001f0 24 f3 54 3e e6 13 90 3e 46 af 81 3e ae 08 d0 be
       0.20795876 0.2814018 0.25329036 -0.40631622
000200 d7 11 4c be a5 75 94 be cc be 31 3e dd 92 76 3e
       -0.1992868 -0.28996006 0.1735794 0.24079461
000210 57 74 a1 bd a5 8d 86 be ce 98 3a be 8d 4e 1b 3d
       -0.07883518 -0.2627994 -0.18222353 0.03791671
000220 47 7b 3d be 1f d2 a8 3e ef bf 6e be 90 fc 92 3e
       -0.18504058 0.3297281 -0.23315404 0.28708315
000230 bf 76 95 3e d8 20 4f 3e 5f 03 8b 3e a4 31 93 3e
       0.2919216 0.20227373 0.2715101 0.2874881
000240 87 90 e3 3d 12 b1 a3 3e 4e 7f 24 bd 0e 4d a6 3e
       0.11111551 0.3197103 -0.04016047 0.32480663
000250 18 a2 96 be 03 18 87 3e 49 a3 b6 bd 82 4d 78 be
       -0.29420543 0.26385507 -0.08917863 -0.24248317
000260 6a ea 0d 3e 05 32 b6 3e 5e 96 7d 3e 57 8c 3f 3d
       0.13858953 0.35585037 0.24764392 0.046764698
000270 3c 49 53 3e f3 82 12 bd 37 a3 84 3e 53 f2 2d be
       0.20633405 -0.035769414 0.25905773 -0.1698697
000280 e5 65 85 3e af 85 ac bd 87 fd 82 3e d5 7c 8d 3e
       0.26054302 -0.084239356 0.2558405 0.27634302
000290 91 5f 40 3e 51 fd a7 3e fa 91 8f 3e b9 ee 46 3e
       0.18786456 0.32810453 0.2804106 0.19427003
0002a0 a2 f5 08 bd 02 f2 87 3e b0 63 77 3e 54 0d 83 3e
       -0.03343738 0.26551825 0.24159122 0.25596106
0002b0 12 32 49 3b 80 98 23 bc aa 65 d1 3c 70 95 58 3e
       0.003070001 -0.009985089 0.025561173 0.21150756
0002c0 ad dd 5e 3d 02 4c a2 3b b6 b0 7b 3e a0 ea e0 3d
       0.054410625 0.0049529085 0.24579129 0.10982251
0002d0 cf c7 9f 3d 18 c5 60 3e 0a 36 23 3d a9 09 87 3e
       0.07801782 0.21950185 0.039846458 0.26374558
0002e0 db 24 91 3e 8f 0d b3 3e c8 71 0e 3c 42 1c 77 3d
       0.2834843 0.34971282 0.00869412 0.060329683
0002f0 70 9d 51 3d a6 5d b6 3e ad 19 7e 3e 66 ff d7 3c
       0.051175535 0.35618323 0.24814482 0.0263669
000300 b4 34 0c bc ec b6 9e 3e 8a 4f 22 3e 46 4a 86 3e
       -0.008557487 0.30998933 0.15850654 0.2622854
000310 59 de 43 3d e4 7a 6d be b8 7b 49 be 3f 7c 0e bc
       0.04781947 -0.2319141 -0.19676101 -0.008696615
000320 8e 4f 8a 3e 0c 51 76 3e ac db 88 3e 52 4e cc bc
       0.2701382 0.24054354 0.26730096 -0.02493969
000330 14 ce 95 bd e6 b3 94 3e 58 49 87 3e 40 83 96 bd
       -0.07314697 0.29043502 0.26423144 -0.07349253
000340 6d 23 bb 3e ae 29 7b be 61 42 ad 3d 2f 3e a8 bd
       0.36550465 -0.24527618 0.084599264 -0.082149856
000350 e5 4e a5 3d 91 d6 8f bd 90 40 8c 3b 0d 30 83 3e
       0.080716886 -0.07023347 0.0042801574 0.25622597
000360 18 d5 13 3e 2f f4 4a 3e 05 cc 66 3e d8 b3 89 3e
       0.14436758 0.19819711 0.22538765 0.26895022
000370 09 31 00 be ae 8d a5 3e e6 3d 4b 3c 7e 3a 55 bd
       -0.12518705 0.32334656 0.012404894 -0.052057736
000380 b3 aa 9a 3e f6 0f 1d bd 46 5b 2a 3e c0 8d 83 be
       0.30208358 -0.0383453 0.1663638 -0.25694084
000390 fb c7 8c be 43 cf 9c 3c b4 07 92 be 75 8c 2a be
       -0.27496323 0.019141799 -0.28521502 -0.16655143
0003a0 f3 27 87 3e 80 05 80 3e 79 1e 85 be 87 7b 5b 3e
       0.26397666 0.25004196 -0.2599981 0.2143384
0003b0 2d f6 21 be 5f 00 5a be b0 db 87 bb 99 7a a3 3d
       -0.15816565 -0.21289204 -0.004146062 0.07982368
0003c0 9e e9 35 be b4 69 87 bb 4b 8f 73 bc d2 3a 9d be
       -0.17764899 -0.004132474 -0.014865707 -0.3070894
0003d0 66 56 92 3e bb 84 9e 3e 26 0e 9c 3e 1d fc 8e 3e
       0.28581542 0.3096064 0.30479544 0.27926722
0003e0 28 2b 0c 3e 8b 84 90 3e c4 eb 95 3c 31 9d 89 3d
       0.13688338 0.28226122 0.018300898 0.06719435
0003f0 03 6e 11 bd 0d 85 9b 3e 29 ae 85 3e 00 5b 9a be
       -0.035505306 0.30374947 0.26109436 -0.30147552

layer3.bias f4 [2]
000000 bf ff 5f 3d a3 03 87 3c
       0.054687258 0.016481226
