Trained networks/policy_net_multi.pth (torch, 74402 bytes, 6 tensors)

layer1.weight f4 [128, 4]
0	0x3ec68fb6	0.38781518
1	0x3e96c724	0.29448807
2	0xbebeb2da	-0.37245828
3	0xbca6a812	-0.020343814
4	0xbf1ce6fe	-0.61289966
5	0xbeaa109f	-0.33215806
6	0x3f46a439	0.77594334
7	0x3f0af784	0.5428393
8	0x3e0f04b4	0.13966638
9	0x3e1cea84	0.15323836
10	0xbece2582	-0.4026299
11	0x3e4ff378	0.2030772
12	0xbdaaaf8a	-0.08334263
13	0x3e1fa63f	0.15590762
14	0xbc3963c4	-0.01131529
15	0x3e282300	0.16419601
16	0xbea85510	-0.32877398
17	0xbe14d4d1	-0.14534308
18	0xbe500c10	-0.20317101
19	0xbdb11889	-0.08647258
20	0x3ba924c7	0.005161855
21	0x3e0fd9a3	0.14047866
22	0xbecde634	-0.40214694
23	0xbe1720f3	-0.14758663
24	0xbf36f36b	-0.71465176
25	0xbec56287	-0.38551733
26	0x3d94dc94	0.072686344
27	0x3df25365	0.118323125
28	0xbe562161	-0.2091117
29	0x3e6bf511	0.23042704
30	0xbc064a0f	-0.008196368
31	0xbece06e0	-0.4023962
32	0xbec5fa29	-0.3866742
33	0xbdb16845	-0.08662466
34	0x3e8dc55d	0.2768964
35	0x3ccdf61a	0.025141764
36	0xbf5e6e8a	-0.8688742
37	0xbf041429	-0.5159326
38	0x3f170845	0.58996993
39	0x3e8838f9	0.26605967
40	0x3ef43c2a	0.47702152
41	0xbec03113	-0.3753744
42	0xbf3ac756	-0.7296041
43	0xbeb359a7	-0.35029337
44	0x3f3cb18d	0.7370842
45	0x3ee03d26	0.43796653
46	0xbd964fff	-0.07339477
47	0xbb6fb19f	-0.0036574376
48	0x3ef2dfee	0.4743647
49	0xbe4f5554	-0.20247394
50	0xbbc0739a	-0.005873156
51	0x3edc76c5	0.43059364
52	0x3e438d90	0.1909697
53	0x3c6c44ce	0.014420701
54	0x3dacfe23	0.0844691
55	0x3efc5342	0.4928227
56	0xbe811f05	-0.2521898
57	0xbece05cb	-0.40238795
58	0x3c9e53df	0.019327102
59	0xbd7dae41	-0.06193376
60	0xbe9a0003	-0.30078134
61	0x3dfe3fe8	0.12414533
62	0x3e228b18	0.15873373
63	0xbebcf056	-0.36902112
64	0x3e117e03	0.14208226
65	0xbefc5748	-0.4928534
66	0xbf63e769	-0.8902498
67	0xbebb684e	-0.36603016
68	0xbf1e5064	-0.61841416
69	0x3e22f3b2	0.15913275
70	0x3ee7975e	0.45232671
71	0xbd21768f	-0.039419707
72	0x3e1f9024	0.15582329
73	0xbe34794b	-0.17624395
74	0xbef72cf1	-0.48276475
75	0xbeba5d23	-0.36399183
76	0xbe3333ae	-0.17500183
77	0xbeb7e60f	-0.35917708
78	0xbe883205	-0.26600662
79	0xbe43894b	-0.19095342
80	0x3c9faf15	0.019492665
81	0x3e89d23b	0.26918206
82	0xbf3b8c43	-0.732609
83	0xbec5b7e3	-0.38616857
84	0x3a5483bc	0.0008106788
85	0xbcfa0701	-0.030520918
86	0x3f29ae9a	0.66282046
87	0xbeab2dbb	-0.33433327
88	0x3ed3c344	0.41359913
89	0xbf093297	-0.5359282
90	0xbf02e535	-0.5113099
91	0x3edaa00b	0.42700228
92	0xbecd6ae1	-0.40120605
93	0x3ec32303	0.3811265
94	0xbf1076b1	-0.5643111
95	0x3ce48001	0.027893068
96	0xbe4ce31d	-0.20008512
97	0xbdad7e1f	-0.08471321
98	0x3e02939f	0.12751625
99	0x3f0c69eb	0.5484912
100	0xbe87d870	-0.26532316
101	0x3e8815fa	0.26579267
102	0x3ec83848	0.3910544
103	0xbba91cdd	-0.0051609115
104	0x3efa5145	0.4889013
105	0xbe593159	-0.21210231
106	0x3e186b88	0.1488477
107	0x3ec9955f	0.39371774
108	0xbef20bc2	-0.47274595
109	0xbe89277c	-0.26787937
110	0x3f870c3d	1.055061
111	0x3ed1ad8c	0.40952718
112	0x3ecc4954	0.39899695
113	0xbe1ec500	-0.15504837
114	0x3eadd9f4	0.33955348
115	0x3b327aaf	0.002723377
116	0x3ec900c7	0.39258406
117	0x3e4a6f10	0.1976893
118	0xbe5cc23a	-0.21558467
119	0x3e9bce11	0.30430654
120	0x3e85e3db	0.26150402
121	0xbed1751a	-0.40909654
122	0x3eb997c5	0.36248603
123	0xbec0ce41	-0.3765736
124	0xbe0d46e8	-0.1379658
125	0x3f06e047	0.5268597
126	0xbd8b76ff	-0.06809806
127	0x3eae3853	0.34027347
128	0x3f4af2ff	0.7927703
129	0x3efc08ae	0.49225372
130	0xbf2dc74e	-0.6788224
131	0xbe4419df	-0.19150494
132	0x3f10db23	0.56584376
133	0x3e82df1e	0.2556085
134	0xbeffcd52	-0.49961334
135	0xbe9d84d6	-0.30765408
136	0xbdb796da	-0.089643195
137	0xbdd7a20b	-0.10528954
138	0x3e96a9a6	0.29426306
139	0x3e6109ac	0.21976346
140	0x3e8165c3	0.2527295
141	0x3dca6f2b	0.09884485
142	0xbde8ef06	-0.11373715
143	0xbe99f212	-0.30067497
144	0x3ea75374	0.32680857
145	0xbddde349	-0.10834367
146	0xbe25df2b	-0.16198413
147	0x3e8f8ae5	0.28035656
148	0xbdada615	-0.08478943
149	0xbc44f81f	-0.012022047
150	0xbf586155	-0.84523517
151	0xbf04ff2b	-0.51951855
152	0x3ea3429f	0.31886765
153	0xbe7eea4a	-0.24894062
154	0xbf4198e9	-0.7562395
155	0x3eb25805	0.3483278
156	0xbe0c61f8	-0.13709247
157	0x3d786fe9	0.0606536
158	0xbea8e88e	-0.32989925
159	0x3b2ce622	0.0026382287
160	0x3e4a7a3a	0.19773188
161	0x3ef92cf9	0.48667124
162	0xbd165e43	-0.03671099
163	0x3cd0dd51	0.025496157
164	0xbe59f95b	-0.21286528
165	0xbe68a7ee	-0.2272031
166	0xbd9ca927	-0.07649451
167	0xbd9deadd	-0.07710812
168	0xbe4f2e40	-0.20232487
169	0x3dfe37df	0.12413
170	0xbe9f21d7	-0.31080505
171	0xbd94ee7d	-0.072720505
172	0x3e8f5b14	0.27999175
173	0xbe2ff4c8	-0.1718322
174	0x3e25dd78	0.16197765
175	0xbd61ef50	-0.055159867
176	0x3d8e5f05	0.06951717
177	0x3e0d4c7f	0.13798712
178	0x3ca43fa2	0.020049874
179	0xbe8a13a2	-0.26968104
180	0x3caa38c0	0.020779014
181	0x3f00e851	0.50354487
182	0x3f0b98d2	0.5453006
183	0xbbc896ea	-0.006121506
184	0x3bfa1765	0.0076321834
185	0xbe793db1	-0.2433994
186	0x3f3151e7	0.692656
187	0x3e26a3ef	0.16273473
188	0xbe72bc64	-0.23704678
189	0x3d9dc5a8	0.077037156
190	0x3ea5e08e	0.32397884
191	0x3d11c630	0.035589397
192	0x3eff4fd9	0.49865606
193	0xbee287a7	-0.4424412
194	0xbf5f3463	-0.8718931
195	0xbef71728	-0.48259854
196	0x3e7a84a4	0.24464661
197	0xbe38ef71	-0.1806009
198	0xbf2109c7	-0.62905544
199	0xbf03612d	-0.51320153
200	0x3cbc6a2a	0.022999842
201	0x3f05ead4	0.52311444
202	0xbf452e0b	-0.7702338
203	0xbb4d918a	-0.0031367266
204	0x3d263d70	0.040585935
205	0x3ed3ed78	0.41392112
206	0xbeebba66	-0.46040648
207	0x3eadc0df	0.3393621
208	0x3e036c74	0.1283434
209	0x3e9a5662	0.3014403
210	0x3f3ba462	0.73297703
211	0xbe8fabd7	-0.2806079
212	0x3d764b68	0.060130507
213	0xbe2fc861	-0.17166282
214	0x3eaf9ab2	0.3429771
215	0xbe69c6b6	-0.22829708
216	0xbe9c248d	-0.30496636
217	0x3e0f8d3d	0.14018722
218	0xbef69922	-0.48163706
219	0xbecca265	-0.39967647
220	0xbc5da703	-0.013528588
221	0xbe22e424	-0.15907341
222	0x3df8e127	0.121523194
223	0xbe3803d3	-0.17970209
224	0x3cd6bde4	0.026213594
225	0xbeebf03f	-0.4608173
226	0xbe627eee	-0.22118732
227	0xbdf02c5d	-0.117272116
228	0xbf00c174	-0.50295186
229	0x3cdf9ca8	0.02729638
230	0xbe547b7a	-0.20750228
231	0xbdf218f0	-0.11821163
232	0xbe474d84	-0.19463164
233	0x3e822f05	0.25426498
234	0x3edb3d36	0.42820138
235	0x3e6f14a2	0.23347715
236	0x3e697ba5	0.22801073
237	0xbe9a2905	-0.3010942
238	0xbef02750	-0.46904993
239	0x3ecd98a6	0.40155524
240	0x3ee48fd8	0.44640994
241	0x3de020f5	0.10943786
242	0x3e2458c1	0.16049482
243	0xbd355671	-0.04427189
244	0xbd9c1629	-0.07621414
245	0xbeb73b83	-0.3578759
246	0x3ec7d3ff	0.39028928
247	0xbe3001f9	-0.17188253
248	0xbf387e7c	-0.72068
249	0x3e009c4c	0.12559623
250	0x3e39ec88	0.18156636
251	0x3ec337aa	0.38128406
252	0x3e847526	0.25870627
253	0x3d758ce1	0.059948806
254	0x3d54e908	0.05198005
255	0x3def0b90	0.11672127

layer1.bias f4 [128]
0	0x3b7b2bf7	0.0038325766
1	0xbdf632a2	-0.12021376
2	0x3ef98447	0.48733732
3	0x3ed71c45	0.42013755
4	0xbb4e5f9b	-0.003149009
5	0xbe4d044b	-0.20021169
6	0xbe8de36b	-0.2771257
7	0x3ead5fdd	0.338622
8	0x3ebaab8c	0.36459005
9	0xbe8f4210	-0.2798009
10	0xbe28102a	-0.16412416
11	0xbe84b350	-0.25918055
12	0x3efa5907	0.48896047
13	0x3e5b7346	0.21430692
14	0x3e3388d8	0.1753267
15	0x3eafd9d8	0.3434589
16	0x3e2e04d6	0.16994032
17	0x3dc07db3	0.09398975
18	0x3e3f46cc	0.1867935
19	0x3f1e95ad	0.6194714
20	0xbea4a604	-0.3215791
21	0x3ed45853	0.41473636
22	0x3e04dff3	0.12976055
23	0x3f2e2727	0.6802849
24	0xbe90ef51	-0.28307584
25	0x3ee6183b	0.4494036
26	0x3f1421e5	0.5786422
27	0xbf197501	-0.5994416
28	0x3ee58d9d	0.44834605
29	0x3f25170c	0.6448829
30	0x3f0a0d35	0.539264
31	0x3ec24df2	0.37950093
32	0xbdf2e3b0	-0.11859834
33	0xbf00184f	-0.5003709
34	0xbed395fc	-0.41325366
35	0x3f026f69	0.5095125
36	0x3e9552dc	0.2916478
37	0x3c5867c0	0.01320833
38	0x3e5e5106	0.21710595
39	0x3f369010	0.7131357
40	0x3e6e30ef	0.23260854
41	0x3f1b8610	0.6075144
42	0x3f054ee2	0.5207349
43	0xbee893f8	-0.4542539
44	0xbece96b0	-0.4034934
45	0x3e08a255	0.13343175
46	0xbf0037bf	-0.5008506
47	0xbe5a3c63	-0.21312098
48	0xbe1c6d58	-0.15276086
49	0xbf0bba7a	-0.54581416
50	0xbeec94d9	-0.46207312
51	0x3ee69785	0.45037475
52	0x3f125dce	0.57174385
53	0x3ee71aa5	0.45137516
54	0xbd89ed8d	-0.06734762
55	0x3ea801e5	0.32813945
56	0x3eccb060	0.39978313
57	0x3ef36e77	0.47545215
58	0x3f0deab6	0.55436265
59	0x3ea029d8	0.31281924
60	0x3f15077c	0.58214545
61	0x3eb383a6	0.35061377
62	0xbeffb594	-0.4994322
63	0x3ed2a226	0.41139334
64	0x3ee7a326	0.4524166
65	0xbe8e0f79	-0.2774618
66	0x3f1a307c	0.6023023
67	0x3f0f9d54	0.5609944
68	0x3f284e72	0.657447
69	0xbe8b521c	-0.27211082
70	0xbe94f2db	-0.29091534
71	0x3e5f60d4	0.21814281
72	0x3ed6ae4b	0.4192985
73	0x3ecb8be8	0.39755177
74	0xbf028868	-0.5098939
75	0x3e9058d1	0.28192762
76	0x3f2b2305	0.6685031
77	0x3c4ba5d3	0.012429672
78	0x3f0539c4	0.5204127
79	0xbebbaf77	-0.36657307
80	0xbed89880	-0.42303848
81	0x3e27ec37	0.16398703
82	0x3f165e9b	0.58738106
83	0xbed1944b	-0.4093345
84	0x3eedefcd	0.46472016
85	0x3f240d15	0.6408246
86	0x3f363268	0.71170664
87	0xbe9c87c4	-0.3057233
88	0x3e2492a6	0.16071567
89	0xbd800f18	-0.06252879
90	0x3e90f804	0.2831422
91	0xbe6a0670	-0.22854018
92	0x3f05d5e1	0.5227948
93	0x3f249059	0.6428276
94	0x3f22fadf	0.6366405
95	0x3f2c68fb	0.6734769
96	0x3e1f890f	0.15579627
97	0x3ed9799b	0.4247559
98	0x3eb3e9e1	0.35139373
99	0xbe91c383	-0.28469476
100	0x3e25bbd2	0.16184929
101	0xbf12340a	-0.57110655
102	0xbe51acf4	-0.20476133
103	0x3f1f6968	0.6227021
104	0x3f1beab0	0.6090498
105	0x3e4216ed	0.18954058
106	0xbe5d435d	-0.21607728
107	0xbf1aac62	-0.60419285
108	0x3f3c3649	0.7352033
109	0xbea15b5f	-0.31515023
110	0x3ea7aaa1	0.32747367
111	0x3f0a9d9b	0.54146737
112	0x3e96801b	0.29394612
113	0xbec14f72	-0.37755924
114	0x3f2ce8c2	0.6754266
115	0x3f27f1b7	0.656032
116	0xbf1400c9	-0.578137
117	0x3e8078df	0.25092217
118	0xbf0d048f	-0.5508508
119	0xbec7a34e	-0.3899178
120	0x3f2f909a	0.6858002
121	0x3e7f883f	0.24954318
122	0x3e3aa33e	0.18226334
123	0xbde6039c	-0.11231157
124	0x3f03ffbe	0.51562107
125	0x3ebd4fd1	0.36974958
126	0xbed7f1d5	-0.4217669
127	0xbf1194fb	-0.5686795

layer2.weight f4 [128, 128]
0	0x3d95ba5d	0.073109366
1	0x3d0613c5	0.032733697
2	0xbd6a8510	-0.057255805
3	0xbdddd9d9	-0.10832567
4	0x3d0670e0	0.03282249
5	0x3e0ac50d	0.13551731
6	0x3da0bf6f	0.07849013
7	0x3df4c900	0.119524
8	0xbe251314	-0.16120559
9	0x3d5449ec	0.05182831
10	0x3e4a7237	0.19770132
11	0x3d9acc51	0.075585015
12	0x3ca9bf13	0.020720994
13	0x3d00b155	0.031419117
14	0xbcabb9c8	-0.02096261
15	0x3da9110b	0.08255204
16	0x3e35b454	0.17744571
17	0xbdc18e97	-0.09451025
18	0x3de0d053	0.10977235
19	0xbd2e0a56	-0.042490326
20	0x3e2cdf44	0.16882044
21	0xbd8e7dda	-0.06957598
22	0xbd241f2f	-0.0400688
23	0xbda7c2bc	-0.081914395
24	0x3dad6d74	0.08468142
25	0x3af41032	0.0018620549
26	0xbc3e195a	-0.011602724
27	0xbd00af64	-0.031417266
28	0xbc8a5b84	-0.016889341
29	0xbd22fbdb	-0.03979097
30	0x3dbef40f	0.09323894
31	0xbe9b134b	-0.30288157
32	0x3d7ece3d	0.062208403
33	0x3e5e6bf7	0.21720873
34	0x3d0304c9	0.031986985
35	0x3d855a94	0.06511417
36	0xbd1020fd	-0.03518771
37	0x3d8e2856	0.06941287
38	0x3db4b785	0.08824066
39	0xbca84770	-0.020541877
40	0xbcaa0da1	-0.020758452
41	0xbda62a55	-0.08113543
42	0x3d74d62a	0.059774555
43	0x3d781e36	0.060575686
44	0x3de8d94c	0.11369571
45	0x3d24fb0b	0.040278476
46	0x3d7d5f02	0.061858185
47	0x3d72956a	0.059224524
48	0x3e5673f9	0.20942678
49	0x3e828fa3	0.2550021
50	0x3e616b46	0.22013578
51	0xbe4aaab9	-0.19791688
52	0xbda0d04a	-0.07852228
53	0x3c82d192	0.015969072
54	0x3d73faac	0.05956523
55	0x3db63ac4	0.088979274
56	0x3d1f8909	0.038949046
57	0xbd7e7268	-0.062120825
58	0xbea0f002	-0.3143311
59	0xbd1d1039	-0.03834555
60	0xbdd347e7	-0.10316449
61	0xbd8e635e	-0.069525465
62	0x3ddf0cbb	0.108911
63	0xbd952c3e	-0.07283829
64	0x3da872ab	0.08224996
65	0x3dd7d6b5	0.10538999
66	0xbe05d475	-0.13069327
67	0x3d38dbea	0.0451316
68	0xbe032fed	-0.12811251
69	0x3d5d4514	0.054020956
70	0x3d8b35bc	0.067973584
71	0x3c334f4a	0.010944197
72	0xbcfb261e	-0.030657824
73	0xbe4fc8f5	-0.20291503
74	0x3e285b78	0.16441143
75	0x3db3eb9b	0.087851726
76	0xbe7153e1	-0.23567154
77	0x3d99e4b8	0.07514328
78	0xbd1d9e26	-0.0384809
79	0x3d976f2c	0.07394251
80	0xbda6173a	-0.08109899
81	0xbdfc05e1	-0.12305809
82	0x3d0ba685	0.034094352
83	0x3d041499	0.032246206
84	0x3d695566	0.056966208
85	0xbb78f522	-0.0037987907
86	0x3d9832ca	0.07431562
87	0xbd4364a4	-0.0477034
88	0x3d1a1230	0.037615
89	0x3d703488	0.058643848
90	0x3e1828fd	0.14859386
91	0x3dbbc452	0.091683045
92	0xbd9c23fa	-0.076240495
93	0xbe445f9f	-0.19177102
94	0xbc3284e9	-0.010895946
95	0xbdd30135	-0.103029646
96	0xbe18129a	-0.14850846
97	0x3d01e7b6	0.031715117
98	0x3ac13ee2	0.0014743472
99	0xbbb59301	-0.005541206
100	0xbdce5feb	-0.10076889
101	0x3d9f5637	0.07780116
102	0xbd0ed43b	-0.034870367
103	0xbcf1cf30	-0.02951774
104	0x3cf1e6c4	0.029528983
105	0xbd13ed89	-0.036115203
106	0xbd8ac091	-0.067750104
107	0x3db1700a	0.08663948
108	0xbe13a236	-0.14417347
109	0x3e6e57bd	0.23275657
110	0xbe8be8d5	-0.27326074
111	0x3d703d30	0.058652103
112	0xbd4415d9	-0.047872398
113	0xbd1a7a46	-0.037714265
114	0xbe217437	-0.15766989
115	0x3cbc4cfd	0.02298593
116	0xbd7e1fca	-0.062042035
117	0x3d220966	0.039559744
118	0x3d379637	0.04482099
119	0xbd8c2f75	-0.06844989
120	0xbdb268f4	-0.087114245
121	0xbda88c08	-0.08229834
122	0xbd48ba3c	-0.049005732
123	0xbc9c8044	-0.01910413
124	0x3c34e720	0.011041433
125	0xbc9a3f54	-0.018829025
126	0x3d070685	0.032965202
127	0x3d82484d	0.063614465
128	0x3d1ffa66	0.039057158
129	0x3d0bf0ea	0.0341653
130	0xbd9eb96b	-0.077502094
131	0xbdb25cbe	-0.087090954
132	0x3d9bcd17	0.07607477
133	0xbcf32f3a	-0.029685605
134	0x3d03f94e	0.032220177
135	0xbd85bc6e	-0.06530081
136	0xbd439f30	-0.047759235
137	0x3d2b341a	0.041797735
138	0x3c67dfa0	0.014152437
139	0x3d209b76	0.03921076
140	0xbd65c3b3	-0.056094836
141	0x3d267f6a	0.040648855
142	0x3d529a22	0.051416524
143	0xbcc7a48c	-0.024370454
144	0x3c8ff244	0.017571576
145	0x3d74b63e	0.059744112
146	0x3cec18e8	0.02882047
147	0xbc9b3514	-0.018946208
148	0xbdabe137	-0.08392566
149	0x3cb96570	0.022631377
150	0xbd8ea2bb	-0.06964632
151	0xbd9f182d	-0.07768283
152	0xbc3d7ec0	-0.011565864
153	0xbc8dc847	-0.017307414
154	0xbd9d437c	-0.07678887
155	0xbc75dcd8	-0.0150062665
156	0xbcff3897	-0.031154914
157	0xbd95f5dc	-0.073222846
158	0x3d5f48ee	0.05451291
159	0x3c033d28	0.008010186
160	0xbd763c85	-0.06011631
161	0x3c87e0b0	0.016586632
162	0x3cf4ee30	0.029898733
163	0x3b9962d0	0.004680969
164	0x3d9082fb	0.070562325
165	0xbda1a824	-0.078933984
166	0xbd482374	-0.048861936
167	0x3ab1e900	0.0013573468
168	0x3d9e3767	0.07725411
169	0xbda1eab9	-0.07906098
170	0x3d7b39ee	0.061334543
171	0xbc6a0cc0	-0.014285266
172	0xbce040fa	-0.027374733
173	0xbd4a8854	-0.04944642
174	0xbd6932ea	-0.05693332
175	0x3d7b980a	0.061424293
176	0xbd3d2438	-0.04617712
177	0x3d50d59a	0.050984956
178	0x3da43661	0.080181845
179	0x3c31d460	0.010853857
180	0xbca4e5f8	-0.020129189
181	0xbbd999b2	-0.0066406364
182	0x3d8859dd	0.06657765
183	0x3c664f68	0.014057018
184	0x3d143a30	0.036188304
185	0x3d3175a2	0.043325074
186	0x3bf44fe0	0.007455811
187	0xbbd06bf0	-0.0063605234
188	0xbda25972	-0.079272166
189	0xbd47be31	-0.048765365
190	0xbc7eb55c	-0.015546169
191	0x3bc26b20	0.0059331805
192	0xbd2f164c	-0.042745873
193	0xbd1e36b4	-0.038626388
194	0xbd9e4a2f	-0.07728993
195	0x3d370f06	0.04469206
196	0x3d9c4dd9	0.07632036
197	0xbc249b00	-0.0100467205
198	0xbcd80fee	-0.026374783
199	0xbc3bc730	-0.011461064
200	0xbcaff260	-0.021477878
201	0x3cfab5ec	0.030604325
202	0xbd4b8db6	-0.049695693
203	0xbd9f94ac	-0.07792029
204	0xbc7a0f20	-0.015262395
205	0x3c107578	0.008817069
206	0x3bc202d0	0.0059207454
207	0x3d1b9e2a	0.037992634
208	0x3d893c87	0.06700998
209	0xbd8d824f	-0.0690962
210	0x3c8f2524	0.017473765
211	0x3d15d83a	0.036583163
212	0x3cd1a75c	0.025592498
213	0x3b93a150	0.004505314
214	0xbd9f87b5	-0.07789556
215	0x3d6a307e	0.057175152
216	0xbc160160	-0.009155601
217	0xbd887fbe	-0.0666499
218	0x3d2ee0fe	0.042695038
219	0xbcd98fde	-0.026557859
220	0x3ce162e8	0.027512982
221	0xbc8b72b8	-0.017022476
222	0xbd9e091a	-0.0771658
223	0xbdb0ed05	-0.08638958
224	0xbdad87ec	-0.08473191
225	0xbd8563a6	-0.06513147
226	0x3d81e10f	0.06341755
227	0xbcfab954	-0.03060595
228	0xbda68a4d	-0.081318475
229	0x3d4703a2	0.04858745
230	0x3d2b4892	0.041817255
231	0x3d1205ae	0.035649948
232	0xbd968a7c	-0.073506325
233	0xbcacbb3b	-0.021085372
234	0xbcc42fd4	-0.023948587
235	0xbbd62210	-0.0065348223
236	0xbd3f9e7b	-0.046781998
237	0xbd8c4e5f	-0.068508856
238	0x3d2d6d96	0.042340837
239	0xbc0b4278	-0.008499734
240	0xbd944948	-0.0724054
241	0x3c91c1b0	0.017792553
242	0xbd98fae4	-0.074697286
243	0x3c977fe4	0.0184936
244	0xbd115301	-0.03547955
245	0xbd4e5690	-0.05037552
246	0x3d408676	0.047003232
247	0x3d183be2	0.037166484
248	0xbd8ef04d	-0.069794275
249	0xbb458e70	-0.0030144714
250	0x3d321af2	0.04348273
251	0x3cded230	0.027199835
252	0x3d54d78a	0.051963367
253	0x3cac6aa3	0.021046942
254	0xbd1b1bee	-0.037868433
255	0xbd5f9370	-0.054583967

layer2.bias f4 [128]
0	0xbce7823c	-0.028260343
1	0x3cf86ee5	0.030326316
2	0x3dd43f14	0.10363594
3	0x3c69164a	0.0142265055
4	0x3e2874ff	0.1645088
5	0xbd088fe3	-0.033340346
6	0x3da593b5	0.080848135
7	0x3e499b28	0.19688094
8	0x3db010d7	0.08596962
9	0x3e2afa52	0.16697052
10	0xbd94c2cd	-0.07263718
11	0x3c1b7144	0.009487454
12	0xbdb428d2	-0.08796848
13	0xbcecaa51	-0.028889807
14	0x3bd0c773	0.0063714324
15	0xbd7fb0a0	-0.062424302
16	0x3de749b1	0.112933524
17	0x3e1daeaf	0.15398668
18	0xbd0c5574	-0.034261182
19	0xbd3ce305	-0.04611494
20	0x3d8be313	0.0683042
21	0x3da6638d	0.081244566
22	0xbd446021	-0.04794324
23	0x3c40ab68	0.011759616
24	0x3e1d0f2d	0.1533782
25	0x3dea7720	0.114485025
26	0xbd186b3d	-0.037211645
27	0xbd59ffb0	-0.05322236
28	0xbbbb5426	-0.0057168184
29	0xbaef9624	-0.0018278998
30	0xbd1a9c0e	-0.03774648
31	0x3e4053e3	0.18782
32	0x3e255839	0.16146936
33	0x3d89f2f7	0.06735795
34	0x3d930469	0.071785755
35	0x3c658258	0.014008127
36	0xbddb1169	-0.1069668
37	0x3e5ff9c5	0.21872623
38	0x3e162c48	0.1466533
39	0xbd9eb678	-0.07749647
40	0xbd1a732f	-0.037707504
41	0x3dba49de	0.0909612
42	0x3e68e0d3	0.22742014
43	0x3cc9265e	0.024554428
44	0xbda07ce8	-0.07836324
45	0xbd3dd5c5	-0.046346445
46	0xbd816a08	-0.06319052
47	0x3c59d77e	0.013296006
48	0x3d6c8a29	0.057748947
49	0x3d175f09	0.036955867
50	0x3e0d5e4d	0.13805504
51	0x3da14392	0.07874216
52	0x3d7b32e9	0.06132785
53	0x3e0e2dd3	0.13884668
54	0xbd32cfeb	-0.043655317
55	0x3e1737a1	0.14767314
56	0xbd8ed0ae	-0.06973396
57	0x3e4f1bcf	0.20225452
58	0x3d1d3cb5	0.038387973
59	0x3c143353	0.00904544
60	0x3d7f795a	0.06237159
61	0x3dd987f2	0.10621633
62	0x3e1edc8d	0.15513821
63	0xbd73590a	-0.059411086
64	0x3e7dc862	0.24783471
65	0xbd641873	-0.05568738
66	0x3da34edc	0.079740256
67	0x3c3d84ad	0.011567277
68	0x3d8a0faf	0.06741273
69	0x3e4e0b55	0.2012151
70	0xbdacef7f	-0.08444118
71	0x3e17e7a5	0.14834459
72	0x3e5b29a6	0.21402606
73	0x3d74d66f	0.059774812
74	0x3db33cd3	0.08751836
75	0x3ded72b2	0.11594142
76	0x3dfa336e	0.12216841
77	0xbc732470	-0.01484023
78	0xbd18cd3b	-0.037305098
79	0x3c1e8e45	0.009677474
80	0x3d53366d	0.051565576
81	0x3e606375	0.2191294
82	0x3e2f3551	0.17110182
83	0x3dbbaa4d	0.09163342
84	0x3e3bb9ee	0.18332645
85	0xbdab4b20	-0.08363938
86	0x3d0921f1	0.033479635
87	0x3d254654	0.040350273
88	0x3e2aff4f	0.16698955
89	0x3de63e79	0.112423845
90	0x3e738669	0.23781742
91	0x3d3febf9	0.0468559
92	0x3c6dc058	0.01451119
93	0x3e2345b8	0.15944564
94	0x3e4cb354	0.19990283
95	0xbc80616b	-0.015671453
96	0x3dc684c4	0.09693292
97	0x3e4aca39	0.19803704
98	0x3e139ebd	0.14416023
99	0xbd8091e3	-0.06277826
100	0xbd98acab	-0.07454809
101	0x3c175e79	0.009238833
102	0x3d62c0f7	0.055359807
103	0x3d532744	0.05155112
104	0x3e48add2	0.19597557
105	0x3d93620e	0.07196437
106	0x3e7c15c2	0.24617675
107	0x3cbdb863	0.023159212
108	0xbcaa7b25	-0.020810673
109	0x3ca0737c	0.019586317
110	0xbdac02c0	-0.08398962
111	0x3d927ba9	0.071524926
112	0xbdf95f30	-0.12176359
113	0xbe20dc0c	-0.15708941
114	0xbb908f10	-0.0044115856
115	0x3d2c8d2d	0.042126823
116	0xbcadf4e4	-0.021234937
117	0x3d39d8b8	0.045372695
118	0x3d73eb92	0.05955083
119	0xbd9414fe	-0.072305664
120	0x3d391d78	0.04519412
121	0x3c8a1d93	0.016859805
122	0x3e6e5da9	0.23277916
123	0x3d648da2	0.055799134
124	0x3ba4dd90	0.005031295
125	0xbcd6f62c	-0.02624043
126	0xbd347d9d	-0.044065107
127	0x3bbb3ff5	0.0057144114

layer3.weight f4 [6, 128]
0	0xbe1ec706	-0.15505609
1	0x3daffac7	0.08592754
2	0x3e7b255b	0.24525969
3	0x3b4f7f99	0.0031661747
4	0x3e039ec2	0.1285353
5	0xbd8840b7	-0.066529684
6	0x3ada3c8d	0.0016650126
7	0x3e4d1910	0.20029092
8	0x3e73a1f9	0.23792256
9	0x3e344fb7	0.17608534
10	0x3ecd5870	0.40106535
11	0xbe195ef5	-0.1497763
12	0xbd93939d	-0.072058894
13	0xbe916700	-0.28398895
14	0x3b6636f0	0.003512796
15	0x3d894c39	0.067039914
16	0x3e096726	0.13418254
17	0x3e130cce	0.14360353
18	0xbe1ebb9c	-0.15501255
19	0xbd714342	-0.058902033
20	0x3e54901b	0.20758097
21	0x3e7cad99	0.24675597
22	0xbd5e26b4	-0.05423613
23	0xbcc91758	-0.024547264
24	0x3e86b5d0	0.26310587
25	0x3e506134	0.2034958
26	0xbd849ed3	-0.06475606
27	0xb8f6ac80	-0.00011762325
28	0xbe9b0296	-0.3027541
29	0xbd97e08c	-0.07415876
30	0x3ca8b751	0.020595225
31	0x3e5dd3bd	0.21662803
32	0x3de3fe95	0.11132542
33	0x3deaecb3	0.11470928
34	0x3e23f6e6	0.16012153
35	0x3d5ccbc2	0.053905256
36	0xbe8b6441	-0.27224925
37	0x3d13f42c	0.036121532
38	0x3df4372c	0.11924586
39	0x3da14c11	0.07875837
40	0x3d0d025c	0.03442608
41	0x3e8cd4c9	0.27506092
42	0x3e70eb4d	0.2352726
43	0xbe832d22	-0.2562037
44	0xbc810da6	-0.015753578
45	0xbda5b0e2	-0.08090378
46	0x3d72926b	0.059221666
47	0xbd9b7b31	-0.07591856
48	0x3d2c9f6c	0.042144224
49	0xbd9e6795	-0.077346005
50	0x3e10f9ff	0.14157866
51	0x3e403c6e	0.18773052
52	0xbd89ded4	-0.06731954
53	0x3e5f8eb6	0.21831784
54	0xbc96d8c8	-0.018413916
55	0x3e7ebcd5	0.24876721
56	0xbda75dcd	-0.08172188
57	0x3e5dc4ef	0.21657155
58	0x3e0272b3	0.12739067
59	0xbd175ffe	-0.03695678
60	0x3e5a4227	0.21314298
61	0x3e68b60b	0.22725694
62	0x3e3b5d29	0.18297257
63	0x3d0bb5be	0.03410887
64	0x3e8b40d0	0.27197886
65	0xbda07a13	-0.07835784
66	0x3dda7d13	0.10668387
67	0x3cfb9a43	0.030713206
68	0x3da7d329	0.081945725
69	0x3e56df4f	0.20983623
70	0xbd3c2e54	-0.04594262
71	0x3ddb08d6	0.10695045
72	0x3dd37533	0.10325088
73	0x3e31ddbb	0.1736974
74	0x3e2ee40c	0.1707918
75	0x3dc6b0da	0.097017005
76	0x3e4340b2	0.19067648
77	0x3d0ef7b2	0.03490419
78	0xbc0f63d0	-0.0087518245
79	0xbd8ca7b6	-0.06867926
80	0x3e48f950	0.19626355
81	0x3dbf8f24	0.09353474
82	0x3e897a0d	0.2685093
83	0xbdcbff95	-0.09960858
84	0x3e103747	0.14083587
85	0x3d5edc6a	0.054409422
86	0xbe152bcb	-0.14567487
87	0xbe4788f0	-0.19485831
88	0x3e265db1	0.16246678
89	0x3e5f2d54	0.21794635
90	0x3e42ec13	0.19035368
91	0x3e7a1af8	0.2442435
92	0x3d77d088	0.060501605
93	0x3e141d55	0.14464314
94	0x3d4e1303	0.0503111
95	0x3da16807	0.0788117
96	0x3de58ab7	0.112080984
97	0x3e733f78	0.2375468
98	0x3dbbebff	0.09175872
99	0x3cba6761	0.022754373
100	0xbdc941e7	-0.09827023
101	0xbe416e4f	-0.18889736
102	0xbe18d276	-0.14924034
103	0xbd93c314	-0.072149426
104	0x3e471348	0.19440949
105	0x3e85bcab	0.26120505
106	0x3e07821a	0.13233224
107	0xba3cf7c1	-0.0007208549
108	0x3d0c0beb	0.034191053
109	0x3d06fb1c	0.03295432
110	0xbd2b7ce9	-0.04186717
111	0xbb39f544	-0.002837495
112	0xbe2aeeae	-0.16692612
113	0xbeab7c5b	-0.33493313
114	0x3cabce04	0.02097226
115	0xbc0b4e51	-0.008502559
116	0xbbe89a8d	-0.007098502
117	0x3e7c3006	0.24627694
118	0x3e3763c6	0.17909154
119	0xbc922e7b	-0.01784443
120	0x3bb3fdee	0.0054929173
121	0xbdfa3bc2	-0.12218429
122	0x3dab8131	0.08374251
123	0x3d52d62a	0.051473774
124	0xbc983474	-0.0185797
125	0xbc202968	-0.009775497
126	0xbd2813e0	-0.04103458
127	0x3d99b4db	0.075051986
128	0xbe106b6e	-0.14103481
129	0x3b370920	0.0027929023
130	0x3dfbd996	0.122973606
131	0x3d28ecbc	0.041241392
132	0x3e130790	0.14358354
133	0xbd9a764d	-0.07542095
134	0xbae78921	-0.0017664769
135	0x3e81533a	0.2525881
136	0x3d74d933	0.05977745
137	0x3e81bce5	0.25339428
138	0x3e0ea2c1	0.13929273
139	0xbe81e811	-0.25372365
140	0xbe3f002b	-0.18652408
141	0xbda3e871	-0.08003319
142	0x3c2c72d4	0.010525424
143	0x3d1896ea	0.037253298
144	0x3e349fe1	0.17639114
145	0x3ceeb63c	0.02913963
146	0xbe77683b	-0.24160855
147	0xbd5b5377	-0.053546395
148	0x3e6600df	0.2246127
149	0x3e820514	0.253945
150	0xbda3fa29	-0.08006699
151	0xbd1285de	-0.035772197
152	0x3e872cae	0.26401275
153	0x3dc40d75	0.09572879
154	0xbdad8615	-0.0847284
155	0x3be1363e	0.0068729213
156	0xbe655665	-0.22396238
157	0x3d14f66a	0.03636781
158	0x3cad9688	0.021189943
159	0x3e0c77d0	0.1371758
160	0x3e6542bb	0.22388737
161	0x3d9ec8ca	0.07753141
162	0x3e3f502a	0.18682924
163	0x3ccd3f5c	0.025054626
164	0xbe8d63bc	-0.27615154
165	0x3e4834a4	0.19551331
166	0x3e79b66d	0.24385996
167	0x3d2c96bb	0.042135935
168	0xbd2d4502	-0.04230214
169	0x3e90192c	0.28144205
170	0x3e4d84d9	0.20070209
171	0xbe21654c	-0.15761298
172	0xbbd62d9c	-0.006536199
173	0xbc579460	-0.013157934
174	0xbd7fffc8	-0.06249979
175	0xbe4de698	-0.20107496
176	0xbdd8bd3d	-0.10582969
177	0xbda50e4d	-0.08059368
178	0x3e28de8d	0.16491146
179	0x3da21450	0.079140306
180	0x3bde36d0	0.0067814365
181	0x3e0f24da	0.13978902
182	0x3d96217b	0.07330605
183	0x3e82432b	0.2544187
184	0xbdb3c1ba	-0.08777185
185	0x3dfe737c	0.12424371
186	0x3e111d33	0.14171295
187	0xbdacd4cb	-0.084390245
188	0x3e2c41ad	0.16821928
189	0x3d9212be	0.07132481
190	0x3d9a2e91	0.07528413
191	0x3db05341	0.086096294
192	0x3e838ee8	0.25694966
193	0xbb6db160	-0.0036269054
194	0x3e68b556	0.22725424
195	0xbd92d1de	-0.07168935
196	0x3cdca3a4	0.026933499
197	0x3e3856d5	0.18001874
198	0xbd90de84	-0.070736915
199	0x3db47bb6	0.088126585
200	0x3e6bc889	0.23025717
201	0x3e42ba56	0.19016394
202	0x3e432448	0.19056809
203	0x3e4ee476	0.20204338
204	0x3df57184	0.11984542
205	0xbaff6dbb	-0.0019487658
206	0xbd52d68d	-0.051474143
207	0xbd8ac558	-0.067759216
208	0x3e5a89ac	0.2134158
209	0x3de04838	0.10951275
210	0x3e09120d	0.13385792
211	0xbe352f70	-0.17693877
212	0x3e8471ad	0.25867978
213	0x3d7387e2	0.05945576
214	0xbe260b6d	-0.16215296
215	0xbe082da6	-0.13298663
216	0x3df21604	0.118206054
217	0x3e4e8750	0.20168805
218	0x3e137b7a	0.14402571
219	0x3e823e0c	0.25437963
220	0xbd241297	-0.04005679
221	0x3e798508	0.24367154
222	0x3e170557	0.1474813
223	0x3c8ad838	0.016948804
224	0x3e4cfa3a	0.20017329
225	0x3e18b6b4	0.14913446
226	0x3e1b87d5	0.15188535
227	0x3d6cbb7e	0.057795994
228	0x3d589c57	0.052883472
229	0xbde7f8d6	-0.113267586
230	0xbe034721	-0.12820102
231	0x3d445647	0.047933843
232	0x3e70619a	0.23474732
233	0x3e830509	0.2558978
234	0x3dfce1de	0.12347768
235	0x3c9b9d08	0.018995777
236	0x3d041e7f	0.032255646
237	0x3d984ed1	0.07436908
238	0x3da5599f	0.080737345
239	0xbda0658c	-0.078318685
240	0xbe340e6e	-0.1758363
241	0xbe903fe2	-0.2817374
242	0x3abc9a50	0.001438925
243	0xbd9dc8c4	-0.07704309
244	0x3d4ac474	0.04950376
245	0x3e7db568	0.24776232
246	0x3e0f4c33	0.13993911
247	0x3d0fc31b	0.035098176
248	0x3bb75430	0.0055947527
249	0xbe4b477e	-0.19851491
250	0x3e1447a6	0.14480457
251	0x3cff478e	0.03116205
252	0xbdaa4a02	-0.08314897
253	0xbd2c06c7	-0.04199865
254	0x3cbdf3aa	0.023187477
255	0x3d8e2639	0.06940884

layer3.bias f4 [6]
0	0x3ca056f0	0.019572705
1	0x3c67584d	0.014120174
2	0x3d94b553	0.07261147
3	0xbc2a65aa	-0.010400215
4	0xbc4c93da	-0.012486422
5	0x3de84914	0.113420635
