Trained networks/policy_net.pth (torch, 71855 bytes, 6 tensors)

layer1.weight f4 [128, 4]
0	0x3e9a766c	0.30168474
1	0x3ec95b40	0.3932743
2	0xbf0f555a	-0.5598961
3	0xbe8094ff	-0.25113675
4	0xbe880a95	-0.26570573
5	0xbe44711b	-0.19183771
6	0xbf101396	-0.56279886
7	0xbe863b7b	-0.26217255
8	0xbe30e7fb	-0.17275994
9	0xbf02e216	-0.5112623
10	0x3b8756b3	0.0041302084
11	0xbeba6a8e	-0.3640942
12	0xbe5f470e	-0.21804449
13	0xbed7a77c	-0.42119968
14	0x3f109e89	0.56491905
15	0x3e00fcf4	0.12596494
16	0xbe81fcff	-0.25388333
17	0x3eb0208e	0.34399837
18	0x3cebffd1	0.028808506
19	0xbed5847d	-0.41702643
20	0xbe2e8ce3	-0.17045932
21	0xbee6fe94	-0.45116103
22	0xbee58155	-0.44825235
23	0x3e2e2629	0.17006744
24	0x3c82aa56	0.015950363
25	0x3e4214fc	0.18953317
26	0x3f34ab5c	0.70573974
27	0xbe649927	-0.22324048
28	0x3e8517d4	0.25994742
29	0xbeaa3848	-0.33246064
30	0x3e6a718e	0.2289488
31	0x3e369bb1	0.17832829
32	0x3e889f32	0.26683956
33	0xbe8fb955	-0.28071085
34	0x3ec0b4de	0.3763799
35	0x3d33b4b4	0.043873504
36	0xbf2286c4	-0.63486886
37	0xbe009fb6	-0.12560925
38	0x3f13ae8e	0.57688224
39	0x3e9fb22c	0.31190622
40	0x3dfab364	0.12241247
41	0xbe57ae05	-0.21062477
42	0x3da4a3f3	0.08039083
43	0xbe87e6ec	-0.26543367
44	0x3f04af6a	0.5183016
45	0x3e343d49	0.17601503
46	0xbe8407aa	-0.25787097
47	0x3dca6b40	0.098837376
48	0x3db7dd6f	0.08977782
49	0x3e5ae41f	0.21376084
50	0xbf078b2e	-0.52946746
51	0x3da9d94e	0.08293401
52	0x3e32b3ce	0.17451403
53	0xbea584d9	-0.32327917
54	0xbf45fe2f	-0.7734098
55	0x3db3fa53	0.0878798
56	0xbe18a885	-0.14908035
57	0xbe711695	-0.2354377
58	0x3e44cbaa	0.19218317
59	0x3dc025d6	0.09382217
60	0xbedfaf54	-0.43688452
61	0xbdc5c8e1	-0.09657455
62	0x3ec97e3e	0.39354128
63	0xbe428a05	-0.18997963
64	0x3f39bb24	0.7255118
65	0xbca1e795	-0.019763747
66	0xbf1d27e0	-0.6138897
67	0xbd414533	-0.047185134
68	0x3f1dd0c8	0.616467
69	0xbe5ce191	-0.21570422
70	0xbdfb8cff	-0.12282752
71	0x3de73c45	0.112907924
72	0xbe60a469	-0.21937717
73	0x3e2886c9	0.16457666
74	0x3ef6bd68	0.4819138
75	0x3d30a8c5	0.0431297
76	0xbeef2df9	-0.46714762
77	0x3ed563bc	0.41677654
78	0x3f09f3e7	0.5388779
79	0x3db5baaf	0.08873498
80	0x3f04784c	0.5174606
81	0x3e3fa939	0.18716897
82	0x3eb5429d	0.35402384
83	0x3c4ad896	0.01238074
84	0xbe5f6825	-0.21817072
85	0xbd812e48	-0.063076556
86	0x3df2083e	0.11817978
87	0xbed4a2e9	-0.4153054
88	0xbf24f11c	-0.64430404
89	0xbeb71125	-0.35755268
90	0x3f29bac8	0.6630063
91	0x3ef2b5b4	0.47404253
92	0x3f02b30d	0.5105446
93	0x3f06c03f	0.52637094
94	0xbc09d8f8	-0.008413546
95	0x3e6819d9	0.2266611
96	0x3ea69df1	0.32542375
97	0xbe78cfd3	-0.24298029
98	0x3deec682	0.11658956
99	0x3eea525d	0.45765963
100	0x3e88bfc2	0.267088
101	0x3dd1e738	0.102491796
102	0x3db50f54	0.08840814
103	0x3dbb8958	0.091570556
104	0xbcc2e071	-0.023788663
105	0x3ddfb5dd	0.109233595
106	0xbde453ba	-0.11148782
107	0x3eddbca5	0.43307987
108	0x3e892fd3	0.267943
109	0x3dfd1ff1	0.12359608
110	0xbf3ae727	-0.7300896
111	0x3ec1d72e	0.37859482
112	0xbed42577	-0.41434833
113	0xbdc616d5	-0.096723236
114	0x3f534a92	0.8253566
115	0xbe66ec73	-0.22551136
116	0xbca0b86d	-0.019619191
117	0x3e47aa85	0.19498642
118	0xbf1d74dc	-0.6150644
119	0xbe628d27	-0.22124158
120	0x3de818cf	0.11332857
121	0x3e933e85	0.28758636
122	0xbde2420e	-0.11047755
123	0x3ddd8889	0.10817058
124	0xbed4dc11	-0.41574147
125	0x3eda4ff6	0.4263913
126	0x3e610d0d	0.21977635
127	0xbead9c9a	-0.3390854
128	0xbe34e85b	-0.17666762
129	0xbd26c84d	-0.040718365
130	0xbe823294	-0.25429213
131	0xbedcb88e	-0.43109554
132	0x3bac8db0	0.005265914
133	0x3e19df3a	0.1502656
134	0x3f06d163	0.5266325
135	0xbe812988	-0.25226998
136	0xbe6ae75d	-0.2293982
137	0xbe9bb4fa	-0.30411512
138	0x3f4ff83a	0.8123814
139	0x3eedba5c	0.46431243
140	0xbd94d337	-0.072668485
141	0x3da8d137	0.082430296
142	0xbe307bc0	-0.17234707
143	0x3e43479b	0.19070284
144	0xbf10ae9b	-0.56516427
145	0x3f05bdc7	0.522427
146	0xbdb417de	-0.08793615
147	0x3e2a95e1	0.16658737
148	0x3e9324b1	0.2873893
149	0x3d397826	0.045280598
150	0x3e68897e	0.22708699
151	0xbea137b4	-0.3148781
152	0xbde27f82	-0.110594764
153	0x3e86c143	0.26319322
154	0xbde6fb0c	-0.11278352
155	0xbec3b8f1	-0.38227037
156	0xbeea00f4	-0.45703852
157	0x3ecbc001	0.39794925
158	0x3f178aa4	0.59195924
159	0x3ea6aa6d	0.325519
160	0xbe9c2894	-0.3049971
161	0x3e61c019	0.22045936
162	0xbef7a724	-0.48369706
163	0x3d98a4ae	0.07453285
164	0x3eeaf494	0.45889723
165	0xbe99205d	-0.29907504
166	0xbf0471ce	-0.5173615
167	0x3d9c19e2	0.07622124
168	0x3e42d126	0.19025096
169	0x3d063fe7	0.032775786
170	0x3f1c970e	0.6116799
171	0x3e9f1baa	0.31075794
172	0xbdde1232	-0.10843314
173	0x3ecc47ae	0.39898437
174	0xbe98af42	-0.2982121
175	0x3e4497b2	0.19198492
176	0x3ebd609b	0.36987767
177	0xbe81c9ee	-0.25349373
178	0xbef2491c	-0.47321403
179	0x3f046fbe	0.51733005
180	0x3e69aa2a	0.22818819
181	0xbee5a095	-0.44849077
182	0x3e2f877d	0.17141528
183	0x3eba5587	0.36393377
184	0xbe6286e5	-0.2212177
185	0x3ed42922	0.41437632
186	0x3eb1cb2c	0.3472532
187	0xbe893ee2	-0.26805788
188	0xbf172886	-0.5904621
189	0xbd67ddd7	-0.056608047
190	0x3c51adac	0.012797754
191	0x3e662503	0.22475056
192	0xbeefa362	-0.4680434
193	0xbe1a194d	-0.15048714
194	0x3f2d1abb	0.6761891
195	0x3d2938cf	0.041313943
196	0x3e59d599	0.21272887
197	0x3ed5a250	0.41725397
198	0xbd2d6f6a	-0.04234258
199	0xbe6fd3fd	-0.23420711
200	0x3e81765c	0.25285614
201	0xbe048775	-0.12942298
202	0xbed23d07	-0.41062185
203	0x3ed626d8	0.4182651
204	0xbe6a61d9	-0.22888888
205	0x3e146910	0.14493203
206	0x3d8187dc	0.06324741
207	0x3ec56448	0.3855307
208	0x3f444098	0.7666106
209	0x3de4d712	0.11173834
210	0xbe5fe9d5	-0.21866544
211	0xbcc62844	-0.024189122
212	0x3f01112e	0.5041684
213	0x3e848b13	0.25887355
214	0xbf0b691f	-0.5445728
215	0xbe3535b6	-0.1769627
216	0x3ee3b9b6	0.44477624
217	0xbda2f65c	-0.079571456
218	0x3e1f2e86	0.15545091
219	0x3ddd8e57	0.10818165
220	0xbac8f450	-0.00153316
221	0x3e988b24	0.29793656
222	0x3f4a9bbc	0.7914388
223	0x3ed6eba0	0.41976643
224	0xbee1a730	-0.44072866
225	0xbe14a84f	-0.1451733
226	0xbd3d6ad5	-0.04624446
227	0xbecf916a	-0.4054063
228	0xbc4b8cbf	-0.012423693
229	0xbe36df7d	-0.17858692
230	0x3d5caed6	0.053877674
231	0x3dd0ff6c	0.10204968
232	0x3f244e61	0.64182097
233	0x3d607787	0.05480149
234	0xbe18542d	-0.1487586
235	0xbdbfde24	-0.09368542
236	0x3ef8f069	0.48620918
237	0xbe3719b0	-0.17880893
238	0xbf3f0dd4	-0.74630475
239	0x3e5b740f	0.21430992
240	0x3e57720b	0.21039598
241	0xbe01eb19	-0.12687339
242	0xbf0b8336	-0.54497087
243	0xbdb1d127	-0.08682471
244	0x3b029942	0.0019927775
245	0xbe785f7b	-0.24255173
246	0xbf2872d7	-0.6580023
247	0xbed19311	-0.40932515
248	0x3ed191e1	0.4093161
249	0xbe741cb1	-0.2383907
250	0xbf155651	-0.58334833
251	0xbddf9f9a	-0.109191135
252	0xbdb311fb	-0.08743664
253	0xbede9e5e	-0.434802
254	0xbe498de6	-0.19683036
255	0xbdff329f	-0.12460827

layer1.bias f4 [128]
0	0xbe911425	-0.28335682
1	0x3f352987	0.7076649
2	0x3e9ff9dd	0.31245318
3	0xbe67f49e	-0.22651908
4	0x3ca04f08	0.019568935
5	0x3e68e150	0.227422
6	0x3e269e73	0.16271381
7	0xbeba9442	-0.36441237
8	0x3f3a351b	0.7273728
9	0xbf028754	-0.50987744
10	0x3f1ccc5b	0.6124932
11	0x3ed9baa1	0.425252
12	0x3eef88c5	0.46784034
13	0xbdd5d3bf	-0.10440778
14	0x3f055496	0.5208219
15	0xbe2629a7	-0.16226827
16	0xbe2955c0	-0.16536617
17	0x3f2244f6	0.63386476
18	0x3df9de68	0.12200624
19	0x3e86ae68	0.26304936
20	0x3ecd8810	0.4014287
21	0x3f116a40	0.5680275
22	0xbe15956e	-0.14607784
23	0x3f08fdd3	0.53512305
24	0x3ee8df1e	0.45482725
25	0xbeefbc58	-0.46823382
26	0xbe3b80cb	-0.1831085
27	0x3eaa17d6	0.3322131
28	0x3e977538	0.29581618
29	0xbefd78d7	-0.49506256
30	0x3f1dcc2b	0.6163966
31	0xbe48269d	-0.1954598
32	0x3c5cade7	0.013469196
33	0x3e4a74e0	0.19771147
34	0x3e85054d	0.25980607
35	0x3f00b07e	0.50269306
36	0x3e25f4a6	0.16206607
37	0x3ef53f4d	0.47899857
38	0xbebde342	-0.37087446
39	0xbe6da6ca	-0.23208156
40	0xbec721f5	-0.38893095
41	0xbd7b2adf	-0.061320182
42	0xbef9f6ab	-0.48821005
43	0x3efa9080	0.4893837
44	0xbdc234d7	-0.09482735
45	0x3f3a5bdc	0.72796416
46	0x3e8864d4	0.26639426
47	0xbe697956	-0.22800192
48	0xbe944c67	-0.2896454
49	0xbf113187	-0.567162
50	0x3eb46976	0.3523671
51	0xbee83d98	-0.45359492
52	0xbdf8fdc6	-0.121577784
53	0xbef0c63e	-0.47026247
54	0x3f138cc2	0.57636654
55	0xbecc93dd	-0.3995656
56	0x3eaf4380	0.34231186
57	0xbeb373b0	-0.350492
58	0xbe5665e2	-0.20937303
59	0xbd4e06b0	-0.050299346
60	0x3e03d29c	0.1287331
61	0xbee8f84f	-0.45501944
62	0x3ec70a6c	0.3887514
63	0x3f26d069	0.6516176
64	0xbd9e8e67	-0.07742005
65	0x3e9d3825	0.30706897
66	0xbe907acf	-0.28218696
67	0x3f25f35a	0.6482445
68	0x3c187482	0.009305121
69	0x3ed93397	0.42422172
70	0x3e6bf282	0.23041728
71	0x3f277d23	0.6542532
72	0xbea735ca	-0.32658225
73	0x3e961b95	0.29317918
74	0x3f1d550f	0.61457914
75	0xbeb7bf57	-0.35888168
76	0xbeb981b2	-0.36231762
77	0xbedcf8f5	-0.4315869
78	0x3ea6ae57	0.32554886
79	0xbec37e2d	-0.38182202
80	0xbe496f13	-0.19671278
81	0xbeb1836d	-0.34670582
82	0x3eb5ae6d	0.3548464
83	0x3eab7cc4	0.33493626
84	0x3ee7c208	0.45265222
85	0x3e5b1335	0.21394046
86	0x3ede605b	0.43432888
87	0xbf05809c	-0.5214937
88	0xbf0336ff	-0.5125579
89	0xbcad82c5	-0.02118052
90	0xbdbfb467	-0.09360581
91	0xbe52a161	-0.20569374
92	0xbed4e1e6	-0.41578597
93	0xbe9cdc13	-0.30636653
94	0x3eb060f7	0.34448978
95	0x3eaf7beb	0.3427423
96	0xbea7522f	-0.3267989
97	0x3e1fd5c4	0.15608889
98	0x3dd766d2	0.10517658
99	0x3ead54d5	0.33853784
100	0xbd485058	-0.048904747
101	0xbea6948d	-0.3253521
102	0x3f042d5b	0.51631707
103	0x3e6ea5ab	0.23305385
104	0xbe599c81	-0.21251108
105	0xbe882946	-0.2659399
106	0xbdf63926	-0.12022619
107	0xbeaa7d98	-0.33298945
108	0xbeabd36c	-0.3355974
109	0xbf01267b	-0.5044934
110	0xbe78cebf	-0.24297617
111	0x3de11b66	0.10991554
112	0x3f15e02c	0.58545184
113	0x3f27c480	0.6553421
114	0x3e9aa554	0.3020426
115	0xbf036fa9	-0.51342255
116	0x3f262f46	0.64915884
117	0x3e9828f3	0.29718742
118	0xbea2b8f0	-0.3178172
119	0x3ee5a1fe	0.44850153
120	0x3f3645a0	0.7119999
121	0x3ed65a1f	0.41865632
122	0x3f2d89e8	0.67788553
123	0x3f0670b7	0.5251574
124	0x3ef1221f	0.47096345
125	0xbea5d110	-0.32386065
126	0x3f0ffc29	0.5624414
127	0xbf0b78a0	-0.54480934

layer2.weight f4 [128, 128]
0	0xbdba46be	-0.09095524
1	0x3e6d4630	0.23171306
2	0x3d95021d	0.07275794
3	0xbd24b48d	-0.04021125
4	0x3da9c07b	0.08288666
5	0x3dc0f415	0.09421555
6	0x3e0745c4	0.13210207
7	0xbe16d1f8	-0.14728534
8	0x3e23259a	0.15932313
9	0xbe8cf4c3	-0.27530488
10	0x3e5967cd	0.21231003
11	0x3e90d502	0.28287512
12	0x3e9d15ac	0.30680597
13	0x3c76d7d6	0.015066108
14	0x3e06b764	0.13155895
15	0x3d4c5cd1	0.049893204
16	0xbe4a6def	-0.19768499
17	0x3e638379	0.22218122
18	0x3eaaedb2	0.33384472
19	0x3e86ec66	0.26352233
20	0x3dff53c9	0.124671526
21	0x3e6c6d09	0.23088469
22	0xbe0cb375	-0.13740332
23	0x3e1bf10b	0.1522867
24	0x3d299f5c	0.041411743
25	0xbdbb6dcf	-0.09151804
26	0xbdb3252b	-0.087473236
27	0x3c0e55d7	0.008687458
28	0x3ddd1fe9	0.10797102
29	0xbe8afbd5	-0.27145258
30	0x3e616f4a	0.2201511
31	0x3c79a607	0.015237338
32	0xbd8e8796	-0.06959455
33	0x3ca82757	0.020526571
34	0x3d8b5434	0.0680317
35	0x3da6c455	0.08142916
36	0x3e5754bc	0.21028417
37	0x3e2ef746	0.17086515
38	0xbe04cbc3	-0.12968354
39	0xbecc3b6b	-0.39889082
40	0xbd955cc6	-0.07293086
41	0x3d17118a	0.03688196
42	0xbe9977a6	-0.29974097
43	0x3e6eb45a	0.23310986
44	0x3d433468	0.0476574
45	0x3db1368b	0.08652981
46	0x3ceb9654	0.028758205
47	0xbda5c8a5	-0.080949105
48	0xbebad90e	-0.36493725
49	0xbe175bc7	-0.14781104
50	0x3dade900	0.08491707
51	0xbe2026e8	-0.15639842
52	0xbdffbd9b	-0.12487336
53	0xbe4949c8	-0.19657052
54	0x3e399c03	0.1812592
55	0xbe88b501	-0.26700595
56	0x3e0cb4c1	0.13740827
57	0xbe80f8e7	-0.25189897
58	0xbe5f9067	-0.21832429
59	0x3d7f9baa	0.062404312
60	0x3ca0ff50	0.019652992
61	0xbea7cb03	-0.32772073
62	0x3e836e88	0.25670266
63	0x3e47c6c5	0.19509418
64	0xbdc062df	-0.09393858
65	0x3e52077c	0.20510668
66	0xbed75ae5	-0.42061535
67	0x3e36a4cc	0.17836303
68	0x3d097997	0.033563223
69	0x3e484a7a	0.1955966
70	0x3d90a9fe	0.070636734
71	0x3e2e0e93	0.16997747
72	0xbf1254e7	-0.571608
73	0x3e604a20	0.21903276
74	0x3e1cc8a2	0.1531091
75	0xbd3b3a6f	-0.045710023
76	0xbe44aa83	-0.1920567
77	0xbe28d66f	-0.1648805
78	0x3d829f94	0.06378093
79	0xbd538d75	-0.051648576
80	0x3ca931a3	0.020653551
81	0xbe635d24	-0.22203499
82	0xba9f76dc	-0.001216616
83	0x3c5bf8e5	0.01342604
84	0x3e491777	0.19637857
85	0x3cac8699	0.021060275
86	0x3df7f320	0.12106919
87	0xbea3db03	-0.3200303
88	0xbe6e7003	-0.23284917
89	0xbccfff5c	-0.02539032
90	0xbd66ffe0	-0.056396365
91	0xbeda1a37	-0.42598125
92	0xbe464a8b	-0.19364373
93	0xbde45818	-0.11149615
94	0x3e0d7fe9	0.13818325
95	0x3e1f8cea	0.15581098
96	0xbdc8a2e9	-0.09796698
97	0x3c2a46d4	0.010392863
98	0x3e0ddda6	0.13854083
99	0x3e812950	0.2522683
100	0xbc8f18fc	-0.017467968
101	0xbe1e3749	-0.15450777
102	0x3e74f21b	0.23920481
103	0xbd12b12c	-0.035813496
104	0x3cfcf90f	0.03088048
105	0xbd623cd8	-0.055233806
106	0xbca30b3c	-0.019902818
107	0xbe8590e8	-0.26087117
108	0xbddc6094	-0.10760608
109	0xbe85124d	-0.25990525
110	0xbea5719f	-0.3231325
111	0x3d6d14e0	0.057881236
112	0x3e5da2eb	0.2164418
113	0x3dbbf406	0.09177403
114	0x3dec40b2	0.11535777
115	0xbe827031	-0.2547622
116	0x3e8e1ce7	0.27756426
117	0x3e875f1a	0.26439744
118	0xbe9b14b4	-0.30289233
119	0x3e76fa08	0.24118817
120	0x3e8c85bd	0.27445784
121	0x3d3abbf5	0.045589406
122	0x3e84ae68	0.2591431
123	0x3e3ecddc	0.18633217
124	0x3e158b66	0.14603958
125	0xbe44bc77	-0.19212519
126	0x3e32b120	0.1745038
127	0xbd9cc525	-0.0765479
128	0x3d1af3c0	0.037830114
129	0xbd53b36d	-0.051684786
130	0xbd9e7fac	-0.07739195
131	0x3d9e4dc0	0.077296734
132	0x3c968336	0.018373113
133	0xbce7cd02	-0.028295998
134	0xbd067c18	-0.03283319
135	0x3d51fc10	0.051265776
136	0x3d98f14b	0.07467898
137	0xbc8d6bc4	-0.0172633
138	0xbd8dc96d	-0.069231845
139	0xbd020eef	-0.031752523
140	0x3d8700fc	0.06591985
141	0x3d134b4e	0.035960488
142	0xbd35da36	-0.044397555
143	0x3db0815b	0.086184226
144	0x3d0bc243	0.03412081
145	0x3cfc4802	0.030796055
146	0xbc2c0be0	-0.010500878
147	0xbcbee227	-0.023301197
148	0xbd049431	-0.03236789
149	0x3d92247f	0.07135867
150	0x3c93d2f2	0.018044923
151	0x3d203883	0.039116394
152	0x3cb1d270	0.02170679
153	0x3bc2fc53	0.0059504895
154	0xbbc52b63	-0.006017135
155	0x3da03e4a	0.07824381
156	0x3cba8abb	0.02277123
157	0xbda250ed	-0.079255916
158	0x3b568672	0.0032733944
159	0x3d14e4a0	0.036350846
160	0xbd6940ee	-0.056946687
161	0xbd89cac2	-0.06728126
162	0x3cf71c9c	0.03016501
163	0x3d7e6879	0.06211135
164	0xbcdc0ce1	-0.02686161
165	0xbd1150c1	-0.035477404
166	0x3d1243ec	0.035709307
167	0xbd7f3c4a	-0.062313356
168	0xbd0574e0	-0.032582164
169	0xbda85c75	-0.0822076
170	0xbd935e26	-0.07195692
171	0x3d969f55	0.07354609
172	0xbd1c2f6a	-0.038131155
173	0xbd865057	-0.06558292
174	0xbd947e38	-0.07250637
175	0x3d0db9bc	0.03460096
176	0xbd0deb8a	-0.034648456
177	0xbd97c0e0	-0.07409835
178	0xbd59d85c	-0.053184852
179	0xbd1c67df	-0.038184997
180	0xbd84930e	-0.06473361
181	0xbc78af7f	-0.01517856
182	0x3d035ae3	0.0320691
183	0xbc97053a	-0.01843511
184	0xbdaf6f71	-0.08566178
185	0x3d3ea951	0.04654819
186	0x3c84d677	0.016215546
187	0x3bd6f004	0.006559374
188	0x3c54cd42	0.01298839
189	0x3d396cc1	0.04526973
190	0xbc8cc1b3	-0.017182207
191	0xbd41a3ce	-0.047275357
192	0x3c6ad460	0.014332861
193	0xbd47b40c	-0.04875569
194	0xbc247c35	-0.010039379
195	0x3d8308d0	0.06398165
196	0xbd8d9dcb	-0.06914862
197	0x3d9d4f7d	0.07681177
198	0x3d8b202e	0.06793247
199	0x3cdfe69d	0.027331645
200	0x3c381e24	0.011237655
201	0xbd87b29c	-0.06625864
202	0xbd5ed77a	-0.054404713
203	0x3c7e85e4	0.015534852
204	0xbbc02f43	-0.005865009
205	0xbda22de4	-0.07918909
206	0x3c4b55c2	0.012410583
207	0x3c7395a0	0.014867216
208	0xbda87e8d	-0.08227263
209	0x3bd581e2	0.0065157274
210	0xbda2a075	-0.07940761
211	0xbc8fda9e	-0.0175603
212	0x3d319f32	0.04336471
213	0x3d238ce7	0.039929297
214	0xbda09a92	-0.07841982
215	0x3d3381d6	0.043824993
216	0xbd103372	-0.035205312
217	0x3d1ecbdf	0.038768645
218	0xbd7bd898	-0.061485857
219	0xbd94716c	-0.07248196
220	0xbd806e00	-0.06270981
221	0x3d712d62	0.05888117
222	0xbd4e4e06	-0.050367378
223	0x3c3962cc	0.011315059
224	0x3c0c208f	0.008552684
225	0xbd83bb14	-0.06432167
226	0xbdb1a355	-0.08673731
227	0xbce79666	-0.028269958
228	0xbc59cfec	-0.013294201
229	0xbcef4088	-0.029205576
230	0x395014f2	0.00019844229
231	0x3d32e042	0.0436709
232	0xbd832df1	-0.06405247
233	0xbda00a2c	-0.0781444
234	0xbd6dfe0c	-0.058103606
235	0x3d94cbff	0.07265472
236	0xbd8d1295	-0.0688831
237	0x3d3919fa	0.04519079
238	0x3d963163	0.073336385
239	0xbdaa3d31	-0.083124526
240	0x3d8acb4a	0.067770556
241	0xbd1d0a1d	-0.038339723
242	0xbd06b014	-0.032882765
243	0x3d6abfe2	0.0573119
244	0x3bf8f1bf	0.0075971778
245	0xbd40b996	-0.04705199
246	0xbd4d19b7	-0.05007335
247	0xbd55ba14	-0.05217941
248	0xbd2d515d	-0.042313922
249	0xbda07e08	-0.078365386
250	0xbd93dfd8	-0.07220429
251	0xbd96ee2c	-0.073696464
252	0xbd2a765e	-0.04161679
253	0x3ccbf6ca	0.024897952
254	0x3cb19f94	0.021682538
255	0xbd4960bd	-0.049164522

layer2.bias f4 [128]
0	0x3e02dde7	0.12779962
1	0xbc1c4824	-0.009538684
2	0x3cb61f54	0.022231735
3	0x3e1b79c7	0.15183173
4	0x3b914d3f	0.0044342573
5	0x3e48271c	0.19546169
6	0xbc973d70	-0.018461913
7	0x3d5c0b20	0.053721547
8	0xbd0036b0	-0.031302154
9	0x3b1873bd	0.0023262345
10	0xbd7f56c4	-0.062338606
11	0x3da52c04	0.08065036
12	0x3e08a47e	0.13343999
13	0xbd70f494	-0.058826998
14	0x3e18f935	0.14938815
15	0x3d790c04	0.060802475
16	0x3e246605	0.16054542
17	0xbd04391c	-0.032281026
18	0x3e78e39e	0.24305579
19	0x3e3a708e	0.18206999
20	0x3dd47084	0.10373023
21	0x3e050c3c	0.12992948
22	0x3de580cf	0.11206209
23	0x3d82d44a	0.06388147
24	0x3e892ce7	0.2679207
25	0x3b5c339d	0.00336001
26	0x3e3bf41a	0.18354836
27	0xbc1fcded	-0.009753686
28	0x3e43d671	0.19124772
29	0x3e1d7cb8	0.15379608
30	0xbd6f46a4	-0.058416978
31	0x3e9032cf	0.28163764
32	0x3d7765de	0.060399882
33	0x3e587e33	0.21141891
34	0x3df39a78	0.11894697
35	0x3d5f3a5e	0.054499023
36	0x3e07cf3d	0.13262649
37	0x3e5577e4	0.20846516
38	0xbd1d7c60	-0.03844869
39	0x3e6d2787	0.2315961
40	0x3e175d15	0.14781602
41	0xbd935e27	-0.071956925
42	0x3cbb576e	0.022868838
43	0x3b7f26ca	0.0038933032
44	0x3e47a6be	0.19497201
45	0x3ce52778	0.027972922
46	0x3e737340	0.23774433
47	0x3dd8b4ce	0.10581361
48	0x3e072c3e	0.13200471
49	0xbd6bb299	-0.05754337
50	0xbd6a847c	-0.057255253
51	0x3e000a44	0.12503916
52	0x3e446a75	0.19181235
53	0xbd0ac3ca	-0.033878125
54	0x3dbe7f15	0.09301583
55	0x3b8a2bf5	0.004216666
56	0x3e337d71	0.17528321
57	0xbd6d0a34	-0.05787106
58	0x3dfa6aa9	0.12227375
59	0xbda760be	-0.08172749
60	0x3df2b9b8	0.11851829
61	0x3d9f4bdc	0.07778141
62	0xbdae91b9	-0.08523888
63	0x3de7e5a5	0.11323098
64	0x3e1a71dd	0.15082498
65	0xbd59e8e7	-0.05320063
66	0x3dec06ce	0.115247354
67	0x3e49aea6	0.1969553
68	0x3dea5878	0.11442655
69	0x3e5b4b68	0.21415484
70	0xbdc72e20	-0.097255945
71	0xbdbeffe9	-0.09326155
72	0x3e996eb2	0.29967266
73	0x3dccf362	0.10007359
74	0x3df353c6	0.11881213
75	0x3de9ecc6	0.11422114
76	0xbc7aaf57	-0.015300593
77	0x3d68359b	0.056691747
78	0x3e3f75ec	0.18697327
79	0x3cc93917	0.024563355
80	0x3e2e800c	0.17041034
81	0xba15b455	-0.00057107705
82	0x3d888f1e	0.066679224
83	0x3da5f9e6	0.08104305
84	0x3e44ef62	0.19231942
85	0x3dd8afc0	0.10580397
86	0x3c183ce1	0.009291858
87	0x3e57ed77	0.2108668
88	0x3e31bcc4	0.17357165
89	0x3df14663	0.11781003
90	0x3b6a5bd0	0.003576029
91	0xbb1a736f	-0.002356734
92	0x3d266291	0.040621344
93	0x3e678b34	0.22611696
94	0x3d8cb985	0.068713225
95	0x3d637d3f	0.055539366
96	0x3a992fb6	0.0011687193
97	0x3b519738	0.0031981003
98	0x3d4a7f47	0.049437787
99	0x3d3a1873	0.045433473
100	0xbdb2dfd4	-0.08734098
101	0x3e1186bd	0.14211555
102	0x3cd922a7	0.026505781
103	0x3c2825ea	0.010262946
104	0xbcc9a620	-0.024615347
105	0x3d1b88ac	0.037972137
106	0xbdee718c	-0.11642751
107	0x3df2e621	0.118603
108	0x3dc16f3b	0.09445044
109	0xbd2f5bfa	-0.042812325
110	0xbd4961a6	-0.04916539
111	0x3d8f22f3	0.06989088
112	0xbd196b36	-0.03745576
113	0x3e5c37f4	0.2150572
114	0x3d3b4e39	0.045728896
115	0xbc011835	-0.007879307
116	0x3d86eac7	0.06587749
117	0x3ce95760	0.028484046
118	0x3dcf1c1a	0.10112782
119	0x3d27affb	0.040939312
120	0xbd387cb9	-0.04504082
121	0x3d4f40b2	0.050598808
122	0x3e00baaa	0.12571207
123	0x3e52978a	0.2056562
124	0x3e20cc8b	0.15703027
125	0x3dc21250	0.09476149
126	0x3d92cd5e	0.07168077
127	0x3da7cb36	0.08193056

layer3.weight f4 [2, 128]
0	0x3e8449a1	0.25837424
1	0xbd9c0abd	-0.07619236
2	0x3e3bb643	0.18331246
3	0x3e9b29b5	0.30305257
4	0xbe4fa939	-0.20279397
5	0x3e9d48c1	0.3071957
6	0xbce93503	-0.02846766
7	0x3e4e9840	0.20175266
8	0x3bc513f3	0.006014341
9	0xbe08de86	-0.13366136
10	0xbed329f9	-0.4124296
11	0x3eb040c8	0.34424424
12	0x3e862f58	0.26207995
13	0x3d5a9a58	0.05336985
14	0x3e9f19ca	0.31074363
15	0x3e8b5f6e	0.27221245
16	0x3e5f5bef	0.21812414
17	0xbc84ec3b	-0.016225925
18	0x3e0f5d39	0.14000405
19	0x3e648bbf	0.22318934
20	0x3e68b9c2	0.22727111
21	0x3e8eccdf	0.2789068
22	0x3ea60b31	0.32430413
23	0x3e6640a1	0.22485591
24	0x3e6aaf46	0.22918424
25	0x3c6c7469	0.014432051
26	0x3df825bd	0.12116573
27	0x3cd2af72	0.025718424
28	0x3e628dde	0.2212443
29	0x3e9e1ec8	0.3088286
30	0x3d85a754	0.06526056
31	0x3e6b7677	0.2299441
32	0x3c2bb957	0.0104812
33	0x3e39acbd	0.181323
34	0x3eaba275	0.33522382
35	0xbdabad7f	-0.08382701
36	0x3da8887b	0.082291566
37	0x3e4b5932	0.19858244
38	0xbe89cbfe	-0.26913446
39	0x3e7e6861	0.24844505
40	0x3e56c36d	0.20972987
41	0xbe8381b8	-0.25684905
42	0xbec6610a	-0.3874591
43	0xbefd6934	-0.49494326
44	0x3e935e67	0.2878296
45	0xbea02141	-0.3127537
46	0x3e322555	0.17397054
47	0x3db2a3a6	0.0872262
48	0x3e6cfc1d	0.23143049
49	0xbe8e8d5a	-0.27842218
50	0xbe584ffb	-0.2112426
51	0x3e5daff1	0.21649148
52	0x3e636b64	0.22208935
53	0xbd31d77e	-0.0434184
54	0x3e9c9b11	0.30587056
55	0x3cc0d81f	0.023540555
56	0x3dc76f91	0.097380765
57	0x3cfde015	0.03099064
58	0x3e3476b1	0.17623402
59	0xbe96f110	-0.2948079
60	0x3e8dbacc	0.27681577
61	0xbd6576ef	-0.056021627
62	0xbde773fa	-0.11301418
63	0x3e9dab73	0.30794868
64	0x3e1e13fa	0.15437308
65	0x3d14faa0	0.036371827
66	0x3e806473	0.25076637
67	0x3e776fa3	0.2416368
68	0x3e46a5b4	0.19399148
69	0x3ea5c7e0	0.32379055
70	0xbdee6b3f	-0.11641549
71	0xbe9abfaf	-0.30224368
72	0x3e2d8547	0.16945373
73	0x3e864af0	0.26229048
74	0x3e73a014	0.23791534
75	0x3e7d309e	0.24725577
76	0xbb2ae1d8	-0.0026074555
77	0x3e90c07f	0.28271863
78	0x3e246c65	0.16056974
79	0xbb9f4548	-0.004860554
80	0x3e2029dc	0.15640968
81	0x3cf3eca0	0.029775918
82	0xbd669811	-0.056297366
83	0x3d0eaa32	0.03483028
84	0x3e3cde88	0.18444264
85	0x3e975310	0.2955556
86	0xbd0a8b9b	-0.033824544
87	0x3ea38704	0.31938946
88	0x3ea9f3aa	0.33193713
89	0x3e4b3648	0.19844925
90	0x3d924329	0.07141716
91	0xbe98e6c8	-0.29863572
92	0x3e878e1c	0.26475608
93	0x3de9fd94	0.11425319
94	0xbd937288	-0.071995795
95	0x3caaf55e	0.020868953
96	0x3d9a585f	0.07536387
97	0xbd14bed4	-0.0363148
98	0x3e4be250	0.1991055
99	0xbe82cbb0	-0.25546026
100	0xbe0018dd	-0.12509485
101	0x3e7b2dfb	0.24529259
102	0xb826fe7c	-3.981449e-05
103	0xbdc06da6	-0.09395914
104	0x3da68357	0.0813052
105	0x3d726df7	0.059186902
106	0xbebb2bcb	-0.3655685
107	0x3e7a7e54	0.24462253
108	0x3de7ffa5	0.11328057
109	0xbcaed2b4	-0.021340705
110	0xbebf5761	-0.37371352
111	0x3e37bf1b	0.17943995
112	0xbda60868	-0.08107072
113	0x3e671201	0.22565462
114	0x3e91cd4b	0.2847694
115	0xbe8a3012	-0.269898
116	0xbc5a7525	-0.0133335935
117	0xbcd07b3e	-0.025449391
118	0x3e907070	0.28210783
119	0xbc727f78	-0.014800899
120	0xbce2c54b	-0.027681967
121	0x3e684ab8	0.22684753
122	0x3e679a3a	0.22617427
123	0x3db9fe46	0.09081702
124	0x3e907a99	0.28218535
125	0x3e8a1c03	0.26974496
126	0x3e8aa167	0.27076265
127	0xbcb2f94c	-0.02184739
128	0x3e5d4595	0.21608575
129	0x3da14d2e	0.07876049
130	0x3e71843f	0.23585604
131	0x3e8ebdd1	0.27879193
132	0xbeaec2d4	-0.34133017
133	0x3e632ce3	0.22185092
134	0x3d5eb048	0.054367334
135	0x3e47c922	0.1951032
136	0x3d794769	0.060859118
137	0x3e446037	0.19177328
138	0xbdb7c377	-0.08972829
139	0x3ea732f0	0.3265605
140	0x3e7ae28b	0.24500482
141	0xbe6fb30a	-0.23408142
142	0x3e55f9b9	0.20896043
143	0x3e80858b	0.25101885
144	0x3e389b2c	0.18027943
145	0x3d0b8913	0.03406627
146	0x3e73a9dd	0.23795266
147	0x3e9db4b2	0.30801922
148	0x3e88c43a	0.2671221
149	0x3e861dac	0.26194513
150	0x3e635239	0.22199334
151	0x3e7f64c6	0.24940786
152	0x3e903e0e	0.28172344
153	0x3da3a66a	0.07990725
154	0x3ea37f97	0.3193328
155	0xbc910d6a	-0.017706592
156	0x3eb54bd5	0.35409418
157	0x3e3b57f6	0.18295273
158	0xbea6ee4b	-0.32603678
159	0x3e2b7d9d	0.16747136
160	0xbcf68e39	-0.030097114
161	0x3e7ff7c6	0.24996862
162	0x3e871c30	0.26388693
163	0xbe582d70	-0.21111083
164	0x3e781e4c	0.24230307
165	0x3e7ef3c6	0.2489768
166	0x3d3acfaa	0.0456082
167	0x3e524e6b	0.20537727
168	0x3e377e8b	0.17919366
169	0xbea9958a	-0.33121902
170	0xbe432b74	-0.19059545
171	0xbe9e9f09	-0.3098071
172	0x3e8443bf	0.25832936
173	0x3e2b91b4	0.167548
174	0x3e682911	0.22671916
175	0x3e944dc1	0.28965572
176	0x3e185282	0.14875224
177	0xbdb51d7c	-0.08843514
178	0xbebfd335	-0.37465826
179	0x3e8d3beb	0.27584776
180	0x3e52407d	0.20532413
181	0xbd5e9c31	-0.054348174
182	0x3e3a56ba	0.18197146
183	0xbe638a21	-0.22220661
184	0x3e85dc96	0.26144856
185	0xbd559fa7	-0.05215421
186	0x3e096b80	0.13419914
187	0xbeaf4351	-0.34231046
188	0x3e15315a	0.14569607
189	0xbd713c9a	-0.058895685
190	0xbe31df48	-0.17370331
191	0xbe879c2d	-0.2648634
192	0x3ea8bf5a	0.3295849
193	0xbe80249e	-0.25027937
194	0x3e61d79b	0.22054903
195	0x3ea592fd	0.32338706
196	0x3e287918	0.16452444
197	0x3e43139c	0.19050449
198	0xbed80256	-0.42189282
199	0x3cb28cca	0.02179565
200	0x3ead0618	0.33793712
201	0x3d7af284	0.061266437
202	0x3e909eca	0.28246146
203	0x3e742b89	0.23844732
204	0xbdec5b0b	-0.115408026
205	0x3e96e3ce	0.29470676
206	0x3e6bc24c	0.23023337
207	0xbe0c844a	-0.1372234
208	0x3e7bdf78	0.24596965
209	0xbe856ab2	-0.26057965
210	0x3d386292	0.04501588
211	0x3ca4083d	0.02002346
212	0x3e2fa5e7	0.1715313
213	0x3e639cf2	0.22227839
214	0xbe893b7f	-0.26803204
215	0x3e2cb291	0.16864993
216	0x3e6e902b	0.23297183
217	0x3e50bb52	0.20383957
218	0x3b8a8ec7	0.004228446
219	0xbe448209	-0.1919023
220	0x3e83bdb2	0.25730664
221	0x3e7d351e	0.24727294
222	0xbe81597d	-0.25263587
223	0xbd9cb4c5	-0.076516666
224	0x3cd3f766	0.025874805
225	0xbd4bb4c1	-0.049732927
226	0x3e86422f	0.2622237
227	0xbea5038d	-0.32229272
228	0xbea4f031	-0.32214502
229	0x3e766220	0.24060869
230	0xbd85b1a3	-0.06528022
231	0xbd083f68	-0.033263594
232	0x3c98283e	0.018573876
233	0xbdeea340	-0.11652231
234	0xbe122852	-0.14273193
235	0x3e977e27	0.29588434
236	0x3eaddf55	0.3395945
237	0xbe8d5950	-0.27607203
238	0x3d21e4bd	0.039524782
239	0x3e551afc	0.20811075
240	0xbcfbc12f	-0.030731766
241	0x3e1d9092	0.1538718
242	0x3e0a61de	0.13513896
243	0xbee1713e	-0.4403171
244	0xbd1c22e1	-0.0381192
245	0xbcaf13ed	-0.021371806
246	0x3ea4aa09	0.32160977
247	0xbd9510a8	-0.072785676
248	0xbe7245b6	-0.23659405
249	0x3e73eb79	0.23820294
250	0x3e87e4b3	0.2654167
251	0x3e62f6ba	0.22164431
252	0x3e57d771	0.21078278
253	0x3e400e1e	0.18755385
254	0x3e44f0ab	0.19232433
255	0xbe39d084	-0.18145949

layer3.bias f4 [2]
0	0x3d73eb83	0.059550773
1	0x3d989cd5	0.07451788
