Trained networks/target_net_multi.pth (torch, 74402 bytes, 6 tensors)

layer1.weight f4 [128, 4]
00000000: f320 c73e f9a7 953e 56c7 bfbe 258c a5bc
00000010: c5fa 1bbf 8699 a9be eebb 453f e5d8 0a3f
00000020: 733f 0e3e 2a17 1d3e 44b2 cebe 5d74 4f3e
00000030: 42c8 abbd c1dd 1f3e 0cd3 51bc 008f 273e
00000040: b39b a7be 75e1 11be 313d 4abe 0c5f b1bd
00000050: 8b51 983b fa53 103e ef02 cdbe 8d60 17be
00000060: 6640 36bf 354e c5be 7ad5 8f3d 2824 f33d
00000070: 3ff5 56be 3769 6b3e 30c4 3cbc 713e cebe
00000080: c4b7 c5be 8fa7 b0bd 348d 8c3e 4d42 c83c
00000090: e4cf 5dbf 6008 04bf 2587 163f e373 883e
000000a0: 3387 f53e 261d bfbe b815 3abf 54b3 b3be
000000b0: 72ce 3c3f 1b26 df3e da81 9ebd f3fa 8ebb
000000c0: 00bd f23e a0e2 4ebe 68c4 eabb 3b0e dc3e
000000d0: 7427 433e 5ee0 6c3c 9060 a43d 91cd fb3e
000000e0: 08bf 81be 065e cebe 3c6b 893c 60cd 80bd
000000f0: 0758 9bbe ad18 fd3d 07d6 1d3e 32ed bdbe
00000100: d10d 1a3e 5d13 fabe 4470 63bf b082 bcbe
00000110: c7cd 1cbf 4011 233e 540f e43e b65c 26bd
00000120: 58c4 2a3e 0771 31be 22cd f4be dc64 babe
00000130: 2ced 34be ed07 b8be 1db4 88be 2012 44be
00000140: 9fec a23c f8b8 893e e73f 3bbf cb91 c5be
00000150: f496 5139 32b9 febc a68e 283f 1ea5 abbe
00000160: 0e80 d03e ddae 09bf baf9 02bf 63a5 da3e
00000170: dde9 cdbe 6036 c33e 168c 10bf 5ffb e13c
00000180: 72c7 4abe fe63 afbd 96c8 fa3d e27d 0c3f
00000190: 0b38 88be 9b30 883e 9654 c73e 0ac9 bfbb
000001a0: c2fe f93e 33cc 58be f98d 173e 3f30 c93e
000001b0: c694 f1be 4a15 8abe 1690 863f 4244 d23e
000001c0: 58fb cb3e f9a5 1ebe a230 ad3e c0c9 0b3b
000001d0: bce7 c83e 51bd 4a3e 871d 5ebe 0290 9b3e
000001e0: b378 853e 0e76 d1be b27f b93e a701 c1be
000001f0: 9142 0bbe e832 073f a2bb 8dbd f4eb ad3e
00000200: 003c 4b3f 439b fa3e cee4 2ebf 4f50 44be
00000210: 061c 113f 9010 833e 0513 ffbe 368b 9dbe
00000220: ed29 b4bd 5068 d9bd 2b88 943e 255d 613e
00000230: 01cc 803e 6720 cb3d f2b1 eebd b1de 9abe
00000240: 77ff a63e bb36 ddbd 6623 26be 5140 8f3e
00000250: b929 a7bd d750 3fbc 0631 58bf 3ef8 04bf
00000260: b85c a23e 9cf8 7ebe 3c59 41bf 3074 b23e
00000270: f313 0dbe 1f49 793d ac45 a9be ed03 0e3b
00000280: 1a6e 4b3e 2164 f93e c611 20bd e145 d03c
00000290: 2d88 5abe 307c 68be 0213 9fbd 1c11 9fbd
000002a0: 0e2a 50be 2a6a fe3d e83f 9fbe e694 95bd
000002b0: e062 8f3e 24fe 2fbe 10e6 253e 04fb 61bd
000002c0: b434 8c3d 9076 0d3e db87 b63c da06 8abe
000002d0: 8142 b83c 754c 013f 5bb3 0a3f a654 ebbb
000002e0: 40e3 223c fe25 7abe f130 303f 0dee 263e
000002f0: dcc8 72be 7fcd 9d3d 26e9 a53e facd 113d
00000300: c41b 003f 50a5 e1be 93d2 5ebf 73a6 f7be
00000310: d57b 793e 9eb3 38be 627f 20bf 0f66 03bf
00000320: 8b39 aa3c 58c3 053f bd0d 45bf ef95 59bb
00000330: fcce 353d 35d2 d43e a98f ebbe 5da3 ad3e
00000340: 388b 033e 7249 9a3e 6597 3a3f 7d1b 90be
00000350: 69da 723d 71b7 2fbe 575b af3e 393b 6abe
00000360: 06ca 9bbe 159d 0f3e 62b3 f5be 4099 ccbe
00000370: 3eaf 6cbc 8fd9 22be 45f9 f83d db53 38be
00000380: 939b ad3c 0a67 ecbe 3b31 65be d79c f1bd
00000390: 981e 01bf e80f e03c 412e 55be 3d08 f3bd
000003a0: 68c0 47be ec51 823e 992b da3e 7a5f 6e3e
000003b0: c018 683e ba64 9abe 4394 f0be c69b cd3e
000003c0: 3817 e43e 6044 e03d 62a9 233e ab25 37bd
000003d0: 5178 9fbd f55d b7be c193 c63e a3c0 30be
000003e0: 6231 38bf 5580 fe3d 9b1e 363e 2da8 c33e
000003f0: 9c28 843e 803c 763d 4158 4f3d 00e7 ed3d
0.38892326 0.29229715 -0.3745677 -0.020208428 -0.6092952 -0.33124942 0.7723988 0.54237205
0.13891391 0.15340868 -0.4037038 0.20259233 -0.083878055 0.15611936 -0.012806665 0.16363144
-0.32735977 -0.14246161 -0.19749905 -0.08660707 0.0046483926 0.14094535 -0.400413 -0.14782925
-0.71192014 -0.3853623 0.07023139 0.11872131 -0.20991991 0.22989355 -0.011521384 -0.40282014
-0.38616765 -0.08625709 0.2745148 0.024445677 -0.8664534 -0.5157528 0.58799964 0.26650915
0.4795471 -0.37326926 -0.7268939 -0.35097754 0.7375251 0.4358376 -0.07739611 -0.0043634116
0.4740982 -0.20203638 -0.0071645267 0.42979607 0.19058019 0.01445779 0.0802623 0.49180272
-0.25341058 -0.4030611 0.016774766 -0.06289172 -0.30340597 0.12358222 0.15413676 -0.37095028
0.15044333 -0.48842898 -0.8884318 -0.36818457 -0.6125149 0.15924549 0.44542944 -0.04061576
0.16676462 -0.17328273 -0.47812754 -0.36405075 -0.17668599 -0.35943547 -0.26699916 -0.19147539
0.01988822 0.26898932 -0.7314438 -0.38587794 0.00019988028 -0.031094167 0.65842664 -0.33524412
0.40722698 -0.53782445 -0.511623 0.42704305 -0.40217486 0.38127422 -0.56463754 0.027585683
-0.19802645 -0.08563994 0.1224529 0.5487958 -0.26605257 0.26599583 0.3893172 -0.005852823
0.48827177 -0.21171646 0.14800252 0.3929462 -0.47183818 -0.26969367 1.0512722 0.41067702
0.39840198 -0.15493001 0.33826166 0.002132997 0.392393 0.19798781 -0.21690951 0.30383307
0.2606865 -0.4091038 0.36230236 -0.37696573 -0.13599612 0.5281205 -0.06920554 0.3396908
0.7938843 0.4894658 -0.6831788 -0.1917126 0.56683385 0.25598574 -0.49819198 -0.30770272
-0.08797059 -0.10615599 0.29010138 0.22008188 0.25155643 0.0991829 -0.11655034 -0.30248025
0.3261678 -0.10801455 -0.16224441 0.27978757 -0.08162255 -0.011676989 -0.84449804 -0.5194129
0.31711364 -0.24899524 -0.75526786 0.3485427 -0.13777141 0.06086075 -0.33060968 0.002166982
0.19866219 0.48709205 -0.03907945 0.025423946 -0.2134101 -0.22703624 -0.07767297 -0.07766935
-0.20328543 0.12422593 -0.31103444 -0.07303791 0.28005123 -0.1718679 0.16201043 -0.055171028
0.0684599 0.13814759 0.022281578 -0.26958352 0.022492649 0.5050729 0.54179925 -0.0071817217
0.009941876 -0.24428555 0.6882468 0.16301747 -0.23709434 0.07705211 0.3240444 0.035596825
0.50042367 -0.44071436 -0.8704006 -0.48369178 0.24363644 -0.18037269 -0.6269437 -0.51327604
0.020779392 0.52251196 -0.7697409 -0.003320094 0.04438685 0.41566625 -0.46008042 0.339137
0.12846076 0.3013416 0.7288726 -0.28145972 0.059290323 -0.17159821 0.34249374 -0.22874154
-0.3042757 0.14024766 -0.4798842 -0.3996067 -0.014446078 -0.15903305 0.121569194 -0.18000738
0.021192348 -0.46172363 -0.22382061 -0.11797493 -0.5043731 0.027351335 -0.20818426 -0.11866806
-0.19506991 0.25453126 0.42611387 0.23278609 0.22665691 -0.30154973 -0.46988115 0.40157908
0.44548965 0.109505415 0.15982583 -0.044713657 -0.077866204 -0.3581387 0.38784602 -0.17260985
-0.7195035 0.12426821 0.17785113 0.38214245 0.25812232 0.06011629 0.050621275 0.116163254

layer1.bias f4 [128]
00000000: 0e4d 3f3b 991c f7bd 2ed1 f83e 0e66 d63e
00000010: 61a0 b7bb 21b5 4bbe 7e13 8dbe cc0a ad3e
00000020: 4c04 ba3e fb58 8ebe c876 26be da58 84be
00000030: eca0 f93e 0411 5a3e 851f 323e 3cc0 ae3e
00000040: 8bbc 273e 8925 c73d a85a 3d3e 8830 1e3f
00000050: d8d2 a4be ea02 d43e 2288 023e 63cf 2d3f
00000060: 348f 8fbe 945a e53e bcd3 133f bf87 18bf
00000070: 80d8 e43e e3b7 243f f0b4 093f ce60 c13e
00000080: b8a3 f4bd 609b ffbe de6e d2be 4509 023f
00000090: 05a1 943e 077b 233c de49 5c3e b136 363f
000000a0: c021 6d3e dc2d 1b3f 75f5 043f b29f e8be
000000b0: 5955 cebe 582b 063e 1957 ffbe 5f47 5abe
000000c0: e604 18be 0094 0bbf 4792 ecbe f65c e53e
000000d0: dd24 123f 815f e63e 09b6 88bd df4a a73e
000000e0: 2e90 cb3e 87a4 f23e 0e8f 0d3f 31e1 9e3e
000000f0: 44ad 143f 8ba8 b23e 5931 febe 9dec d13e
00000100: a940 e73e dada 8dbe ccd4 193f 883e 0f3f
00000110: edf4 273f 1f1d 8bbe f106 94be 6d72 5e3e
00000120: 3fed d53e 90d2 ca3e 8f69 02bf cfb3 8f3e
00000130: 3acb 2a3f 7933 173c 95ca 043f 085d babe
00000140: 258a d9be cd7a 263e 3b55 163f dba6 d1be
00000150: fb0b ed3e bdb3 233f 1cc6 353f db78 9abe
00000160: 2925 203e 5f47 79bd 2443 903e 5ef9 68be
00000170: d27a 053f b5f7 233f 986f 223f f901 2c3f
00000180: 9a31 1e3e 23b0 d83e 0314 b33e 1de4 90be
00000190: 8c56 283e a3bb 11bf fc54 4fbe cc10 1f3f
000001a0: 3f90 1b3f d088 423e 960b 5bbe da32 1abf
000001b0: c4de 3b3f 76e1 a0be 91ed a63e 5bc1 0a3f
000001c0: 67c8 953e 1a7f c0be 3338 2c3f df92 273f
000001d0: 2f7f 13bf 5677 7f3e e0c2 0cbf 76ad c7be
000001e0: d939 2f3f ba20 7e3e 9c61 393e 6257 e1bd
000001f0: d9a5 033f e196 bc3e 00f6 d6be 6415 11bf
0.0029190215 -0.120660014 0.4859709 0.41874737 -0.0056038355 -0.19893314 -0.27553934 0.337973
0.36331403 -0.27802262 -0.16256249 -0.25849038 0.48755586 0.21295553 0.17394836 0.34131038
0.16380517 0.09723956 0.18491614 0.617928 -0.3219211 0.41408473 0.12747243 0.6789457
-0.28038943 0.44795668 0.57744956 -0.5958213 0.44696426 0.6434309 0.53791714 0.3776917
-0.119452894 -0.4992323 -0.4110021 0.50795394 0.29029098 0.0099780625 0.21512553 0.711772
0.23157406 0.6061685 0.5193704 -0.45434338 -0.4029949 0.13102472 -0.49871138 -0.21316288
-0.14845619 -0.54522705 -0.4620535 0.44797486 0.570875 0.4499474 -0.066753455 0.3267431
0.39758438 0.4739115 0.5529641 0.31031182 0.5807688 0.34894213 -0.49647024 0.41000834
0.4516652 -0.27706033 0.6009033 0.5595479 0.656081 -0.27170655 -0.28911546 0.21723337
0.41782567 0.3961377 -0.5094232 0.2806687 0.6671635 0.009228581 0.51871616 -0.36399102
-0.42488208 0.16257782 0.587238 -0.40947613 0.46298203 0.63946134 0.71005416 -0.3017033
0.15639175 -0.06085908 0.28176224 -0.22751376 0.52140534 0.64049846 0.6345153 0.6719051
0.15448609 0.42321882 0.34976205 -0.28299037 0.16439265 -0.56926936 -0.20247263 0.62135005
0.6076698 0.18997502 -0.21391138 -0.60233843 0.7338679 -0.31422013 0.32603124 0.5420129
0.29254457 -0.3759697 0.67273253 0.6545848 -0.5761594 0.24947867 -0.54984856 -0.38999528
0.68447644 0.24817172 0.18103641 -0.11002995 0.5142494 0.3683386 -0.41984558 -0.56673265

layer2.weight f4 [128, 128]
00000000: c99b 943d cd1a 063d 6cd3 68bd 93f5 dbbd
00000010: f30d 003d 4408 0a3e 07c8 a03d eb8e f43d
00000020: 56f8 23be dc54 543d 4a64 493e 1f89 993d
00000030: abc7 a93c 5db8 003d 88b7 abbc 7cf1 a83d
00000040: 1610 353e 591d c0bd 7e07 e03d 62ac 2dbd
00000050: 583f 2c3e 4557 8ebd c727 24bd 3eb5 a7bd
00000060: d676 ad3d 4a4d 113b 8023 3ebc 6cb6 00bd
00000070: 1b78 83bc 5964 20bd 331b bf3d 3c98 9abe
00000080: 7382 7c3d 519b 5d3e d10b 033d 212e 853d
00000090: cd28 10bd f92d 8d3d e7c0 b43d bafe a6bc
000000a0: 4174 aabc d779 a5bd cdfc 743d bb2a 783d
000000b0: 5e81 e73d c2a4 253d 486c 7d3d e4a1 723d
000000c0: 8982 553e 480a 823e 6006 603e 731a 4abe
000000d0: 16ae a0bd 1415 843c 153a 723d 1270 b63d
000000e0: 828c 203d 2126 7ebd ee4d a0be 0418 1dbd
000000f0: ef05 d3bd 55f2 8cbd 7418 df3d 14b4 93bd
00000100: e07c a83d b0f7 d53d 9ce1 04be 5f0a 393d
00000110: a797 02be 0f59 5a3d c43c 8b3d 2659 353c
00000120: 521c fcbc 5816 4fbe 050d 273e fbf4 b33d
00000130: 7624 70be c349 993d e60e 1abd ff76 973d
00000140: d21f a6bd 0d19 fbbd 6781 0b3d 4834 013d
00000150: 1227 693d d169 70bb 070d 983d cc6e 43bd
00000160: 01c8 193d 0b41 703d 95fa 173e ebe6 ba3d
00000170: 0017 9cbd 1742 43be fb21 34bc ec56 d2bd
00000180: 1189 17be 9ed5 013d 97f8 dd3a 609c b5bb
00000190: ed4d cdbd cd5e 9f3d 43db 0ebd 6a6c eebc
000001a0: 2611 f43c ed5d 14bd 99c7 8abd 6b79 b13d
000001b0: 91f9 12be 2669 6d3e a26e 8bbe eda3 703d
000001c0: 0a76 44bd 1082 1abd bf50 20be 488a c13c
000001d0: 0f2d 7ebd a702 223d 8edf 343d 7d36 8cbd
000001e0: 3c69 b2bd a7c9 a7bd 64c4 48bd a908 a0bc
000001f0: fab3 343c 6190 98bc 8d0d 073d 554f 823d
00000200: fe02 203d f2f7 0b3d 01c2 9ebd 1c66 b2bd
00000210: e4d4 9b3d b43b f3bc 5600 043d 76c3 85bd
00000220: 58a9 43bd b23c 2b3d 58eb 673c 0ea4 203d
00000230: 68cf 65bd 0288 263d 10a5 523d b4ae c7bc
00000240: 0cfa 8f3c bcc2 743d 6325 ec3c dc3c 9bbc
00000250: cfe9 abbd cc6e b93c c3a9 8ebd c320 9fbd
00000260: e688 3dbc 4fcf 8dbc 4d4b 9dbd 54e9 75bc
00000270: dc45 ffbc a8fd 95bd a354 5f3d 3044 033c
00000280: 0a49 76bd b8e7 873c acfa f43c 9c6a 993b
00000290: c68a 903d bcb0 a1bd 9c2d 48bd 5cf2 b13a
000002a0: fd3f 9e3d 51f3 a1bd 3347 7b3d 3b19 6abc
000002b0: af4c e0bc 7c92 4abd a43e 69bd 50a5 7b3d
000002c0: 5e2e 3dbd 88e0 503d f93e a43d bcdd 313c
000002d0: 90ee a4bc a2a4 d9bb e560 883d 1d5b 663c
000002e0: fc41 143d 007f 313d 5c5c f43b de76 d0bb
000002f0: 0a62 a2bd 59c8 47bd a1c2 7ebc 4875 c23b
00000300: a81f 2fbd 4a3f 1ebd c552 9ebd 6418 373d
00000310: a455 9c3d 98a3 24bc dc1a d8bc 92d0 3bbc
00000320: bcfb afbc 31c3 fa3c a498 4bbd 429d 9fbd
00000330: 651c 7abc 427d 103c f80c c23b f0a5 1b3d
00000340: 8f43 893d 5789 8dbd ee2c 8f3c 02e0 153d
00000350: 4ab2 d13c 18a9 933b 4b90 9fbd fb3c 6a3d
00000360: 2e09 16bc c686 88bd 5cea 2e3d ce9a d9bc
00000370: 9c6e e13c c079 8bbc f510 9ebd 64f6 b0bd
00000380: 4891 adbd ae6a 85bd 17e8 813d 99c6 fabc
00000390: e592 a6bd ca0d 473d 2a51 2b3d 740d 123d
000003a0: 4a92 96bd d3c3 acbc fc39 c4bc fe2c d6bb
000003b0: a1a8 3fbd 6755 8cbd f376 2d3d 8049 0bbc
000003c0: 1051 94bd 7cc9 913c aa02 99bd ae87 973c
000003d0: c85a 11bd 7e61 4ebd 9e90 403d b043 183d
000003e0: 56f7 8ebd 9898 45bb 5024 323d e4dd de3c
000003f0: 78e2 543d 3b73 ac3c b423 1bbd 269f 5fbd
0.07256276 0.032740403 -0.056842253 -0.10740199 0.031263303 0.13479716 0.07850652 0.11941322
-0.16012701 0.05183874 0.19667163 0.07496857 0.020725092 0.031425823 -0.020961538 0.082491845
0.17681918 -0.093805976 0.10938929 -0.042400725 0.16821039 -0.06950239 -0.040076997 -0.08188866
0.08469932 0.0022171312 -0.011605144 -0.03142397 -0.016048482 -0.0391582 0.0933136 -0.3019427
0.061647844 0.2164128 0.03199369 0.06502939 -0.03519516 0.06893534 0.08825856 -0.020385135
-0.020807387 -0.0807988 0.059811402 0.060587626 0.11303972 0.04044033 0.061870843 0.059236422
0.20850576 0.2539847 0.21877432 -0.19736652 -0.07845704 0.016123332 0.059137423 0.089080945
0.0391965 -0.06204808 -0.31309456 -0.03835298 -0.10303866 -0.06882159 0.10893336 -0.072120816
0.08226943 0.10447633 -0.12976688 0.045175906 -0.12753163 0.05330759 0.067986995 0.011068618
-0.030775223 -0.20223367 0.1631356 0.08786961 -0.23451409 0.07484772 -0.037611865 0.073957436
-0.08111538 -0.122606374 0.034058955 0.031544 0.056922026 -0.0036684165 0.0742436 -0.047713086
0.037544254 0.05865578 0.14841683 0.09126075 -0.076215744 -0.1906818 -0.01099443 -0.10270485
-0.1479838 0.03169786 0.0016935047 -0.005542323 -0.10024629 0.07781754 -0.034877073 -0.02910443
0.029793333 -0.036222387 -0.067763515 0.08665737 -0.14353015 0.23184642 -0.27232844 0.05875008
-0.047964133 -0.037721694 -0.15655802 0.023625508 -0.06205469 0.03955331 0.04415851 -0.0684633
-0.08711478 -0.08192759 -0.049015418 -0.01953538 0.011029238 -0.018623533 0.032971907 0.06362788
0.039065354 0.034172006 -0.07751847 -0.08710882 0.07608965 -0.029691555 0.032226883 -0.06531422
-0.04776892 0.04180593 0.014155231 0.039218955 -0.056106 0.04065705 0.051426947 -0.024375297
0.017575286 0.059756026 0.028826421 -0.018949918 -0.08394205 0.02263584 -0.06965973 -0.07769921
-0.011568284 -0.017310767 -0.07680378 -0.015009243 -0.031161241 -0.07323772 0.054524075 0.008011863
-0.06012825 0.016589984 0.029904686 0.0046818983 0.07057719 -0.078950375 -0.04887162 0.0013576257
0.077270485 -0.07907737 0.061347198 -0.014288242 -0.027380316 -0.049456105 -0.056944504 0.06143695
-0.046186797 0.05099538 0.080198236 0.010856088 -0.020133287 -0.00664194 0.06659106 0.014059809
0.03619574 0.043334007 0.007457299 -0.0063618263 -0.07928856 -0.04877505 -0.015549333 0.005934391
-0.0427548 -0.038634576 -0.07730631 0.044700995 0.07633522 -0.010048769 -0.026379995 -0.011463301
-0.021482341 0.030610653 -0.049706116 -0.077936664 -0.015265559 0.008818926 0.005921956 0.038000047
0.06702339 -0.06910961 0.017477479 0.036590584 0.02559771 0.0045062415 -0.077911936 0.05718706
-0.009157462 -0.06666331 0.04270397 -0.026563074 0.027518563 -0.017025828 -0.07718078 -0.08640745
-0.08474976 -0.06514488 0.06343096 -0.030612277 -0.08133487 0.048597135 0.04182545 0.03565736
-0.07352121 -0.02108947 -0.02395343 -0.006536125 -0.046791676 -0.06852227 0.042349767 -0.0085014105
-0.07242024 0.01779627 -0.07471211 0.018497314 -0.035486966 -0.050385945 0.047012918 0.037173927
-0.06980769 -0.0030150767 0.04349166 0.027205415 0.05197379 0.02105104 -0.037875846 -0.054595135

layer2.bias f4 [128]
00000000: 5454 e5bc c07b f83c 9495 d13d fe7c 693c
00000010: 5611 273e eb96 08bd 4d9c a53d 9431 483e
00000020: dfbc ae3d a0d2 293e 2368 91bd 0f00 203c
00000030: 135f b5bd 6826 eabc 62d2 d03b e6bd 7fbd
00000040: cc77 e43d b6e3 1c3e 377b 0abd 2bed 3cbd
00000050: 1582 8a3d 52a8 a33d 496a 44bd 90b5 403c
00000060: bcab 1b3e 8305 e83d 0873 18bd a00a 5abd
00000070: 2a6b b0bb 9ca2 efba daa3 1abd b5db 3e3e
00000080: 90a4 243e 78b8 873d 16a0 913d 0e8e 653c
00000090: a5fa d9bd d6a9 5e3e 86ef 143e 0ebf 9ebd
000000a0: fe7a 1abd 0adf b83d 7091 673e 8c66 cc3c
000000b0: 8085 a0bd ebdf 3dbd 1071 81bd f1e9 5f3c
000000c0: 8b96 6c3d dd66 173d 46f4 0c3e f0e9 9e3d
000000d0: 2f40 7b3d d674 0d3e 48d9 32bd b966 163e
000000e0: f846 8dbd 04fe 4d3e c09e 183d 253b 143c
000000f0: 2563 7b3d 66aa d73d a7f7 1d3e 8465 73bd
00000100: af70 7c3e 2924 64bd a3e9 a03d d38e 3d3c
00000110: b716 8a3d f299 4c3e 17f8 acbd 3da1 163e
00000120: 96d2 593e 5332 723d 71ad b13d c72d eb3d
00000130: f979 f73d ec30 73bc 0ad5 18bd 7bae 213c
00000140: c9c8 4f3d d425 5f3e c3f7 2d3e c176 bb3d
00000150: 2f54 3a3e b853 abbd 3e05 0a3d 216e 2b3d
00000160: 6920 2a3e 0db4 e43d cc3a 723e f4dd 3b3d
00000170: d4cc 6d3c 8ace 213e 8585 4b3e 671e 80bc
00000180: 4a1f c43d 1984 493e 8b3c 123e eb98 80bd
00000190: 3bfd 97bd e34e 0e3c 77f9 633d 7e0b 533d
000001a0: 1894 473e 79c4 913d 2de5 7a3e 07fd b73c
000001b0: bd83 aabc 147c a03c 580b acbd 3995 923d
000001c0: 5f60 f9bd 6205 20be d896 90bb c595 2c3d
000001d0: 40fe adbc 79a1 373d f687 703d 35ea 94bd
000001e0: 4f02 363d ba41 8e3c efe8 6c3e 5599 643d
000001f0: 28e6 a43b 1a01 d7bc fc86 34bd 5749 bb3b
-0.027994312 0.030332446 0.10233608 0.014250992 0.16315207 -0.03334705 0.08086453 0.19550163
0.08532118 0.16584253 -0.07099941 0.009765639 -0.088560246 -0.028582767 0.006372736 -0.06243696
0.11155662 0.1532124 -0.033808913 -0.04612462 0.067630924 0.07991089 -0.047952924 0.011762038
0.1520223 0.11329176 -0.037219077 -0.05323279 -0.0053838687 -0.0018282714 -0.037753917 0.18638499
0.160784 0.066269815 0.07110612 0.014010919 -0.1064351 0.21744475 0.14544496 -0.077512845
-0.03771495 0.09026916 0.22614074 0.024951242 -0.07837963 -0.046356123 -0.06320393 0.013666616
0.057760756 0.036963332 0.13765058 0.07759464 0.061340507 0.138141 -0.043664247 0.14687623
-0.06898302 0.2011643 0.03726077 0.009047304 0.06137385 0.10530548 0.15426503 -0.059422985
0.2465236 -0.055698548 0.07857063 0.0115696965 0.06742614 0.199806 -0.08445757 0.14709945
0.21271738 0.059130024 0.086756594 0.11483341 0.12083811 -0.014843207 -0.037312545 0.00986826
0.050728593 0.21791774 0.16989045 0.0915351 0.18196176 -0.083655775 0.033696406 0.041853074
0.16613926 0.111671545 0.23655242 0.045865968 0.014514167 0.15801445 0.19875152 -0.015639497
0.095762804 0.19679298 0.14280908 -0.06279167 -0.07421347 0.0086858 0.05565783 0.05152463
0.19490087 0.07117552 0.24501486 0.02245952 -0.02081477 0.019590415 -0.08400601 0.07157368
-0.121765845 -0.15627053 -0.004412513 0.04213502 -0.0212394 0.044831727 0.058723412 -0.07271234
0.044435795 0.017365325 0.23135732 0.05581029 0.0050323196 -0.026245642 -0.044074044 0.00571553

layer3.weight f4 [6, 128]
00000000: 9be6 1dbe 2404 b03d 811e 7a3e 71fa 093b
00000010: b28a 023e bf47 88bd 8947 da3a 0cf8 4b3e
00000020: b43c 723e 630f 333e 076d cc3e 444f 16be
00000030: 5f8a 90bd ada3 90be a442 663b 4153 893d
00000040: d868 083e a827 123e 2c08 1abe bc4f 71bd
00000050: b63d 533e 90a3 7b3e 6832 5ebd 8021 c9bc
00000060: ab19 863e cb3f 4f3e dba5 84bd 03b9 f6b8
00000070: ee25 99be 52e8 97bd e9bf a83c 21cf 5c3e
00000080: 1e8d e13d ebad e83d cde7 223e 77d7 5c3d
00000090: abfc 89be 30d1 103d e3a2 f13d a954 a13d
000000a0: 6409 0d3d 811d 8c3e 5899 6f3e 739c 82be
000000b0: ae14 81bc 7ab9 a5bd e49e 723d 5823 98bd
000000c0: e4a7 2c3d 2b70 9ebd 30c2 0f3e fb52 3f3e
000000d0: dce5 89bd f080 5e3e 92e0 96bc 6f54 7d3e
000000e0: f635 a4bd 628c 5c3e dc3f 013e d667 17bd
000000f0: d038 593e 877f 673e cc36 3a3e c6bc 0b3d
00000100: 25c8 8a3e ab82 a0bd 6b1b d83d 88a7 fb3c
00000110: c1db a73d 6de7 553e df37 3cbd 85c6 d83d
00000120: 224b d13d c887 303e b7ca 2d3e 3876 c43d
00000130: 9e0e 423e c2fe 0e3d 966b 0fbc b8e1 8dbd
00000140: b897 473e c7b6 bd3d cbf4 883e a1b4 cebd
00000150: db38 0f3e 1fe8 5e3d ecc4 13be 9518 46be
00000160: 7112 253e 7cfd 5d3e d0ca 413e 0ef4 783e
00000170: 0bdd 773d 590b 133e fd95 4a3d 147c a13d
00000180: be34 e33d a224 723e 82e8 b93d c070 ba3c
00000190: fad0 bbbd 9dd2 40be 0337 17be 3063 93bd
000001a0: 210b 463e 1307 853e 2d95 063e 00d3 98ba
000001b0: f312 0c3d 2402 073d 8185 2bbd 728a 3bbb
000001c0: f8b8 29be 89bf a9be 9cd6 ab3c 5955 0bbc
000001d0: 47a6 e8bb edfc 7a3e f069 363e 7598 8ebc
000001e0: 3401 ba3b fb77 f2bd 8a7e a93d 18e1 523d
000001f0: 3a3c 98bc 0032 20bc 781c 28bd a4bc 993d
00000200: 15a7 10be 7c12 373b 89ef f93d b233 2b3d
00000210: 3520 123e 147e 9abd dc94 e7ba d5ca 803e
00000220: a08a 703d d72a 813e 0199 0c3e 8a82 80be
00000230: 568a 3dbe 5c7d a4bd 6c7b 2c3c b49e 183d
00000240: 4293 333e 4c05 e83c 9971 73be 285f 5bbd
00000250: 5ab2 643e e07c 813e c102 a4bd a88d 12bd
00000260: d9a8 863e 9b02 c23d 738f adbd f141 e13b
00000270: a857 62be 30fe 143d e49f ad3c d472 0b3e
00000280: 2437 643e ecfe 9c3d 8c20 3e3e 4a4a cd3c
00000290: 566f 8cbe 9346 473e 5a35 783e 539f 2c3d
000002a0: 5f4e 2dbd 3c78 8f3e dd75 4c3e bdaa 21be
000002b0: 8a38 d6bb 4e9f 57bc ea06 80bd f678 4cbe
000002c0: 2cc8 d8bd e516 a5bd 328f 273e 4045 a03d
000002d0: 8442 de3b b515 0e3e 4a29 963d a0bd 813e
000002e0: 5a55 b1bd 74d0 fb3d a501 103e 63dd acbd
000002f0: 8c1f 2b3e 88cd 8f3d 8ed7 973d a05c b03d
00000300: b90a 833e dbbd 6dbb 6fcc 673e b5d9 92bd
00000310: 59af dc3c 4a64 373e 4ce6 90bd 6e63 b23d
00000320: f99f 6a3e 0b78 413e ab1e 423e 98da 4d3e
00000330: 5e96 f33d 007b ffba 7ae1 52bd 5378 87bd
00000340: f455 593e b44d de3d 23ea 073e 7a26 33be
00000350: 7cf1 833e 5c94 733d be52 26be d668 06be
00000360: 50ec ef3d e673 4d3e 446d 123e 57b8 813e
00000370: 2f1b 24bd 867b 783e ba1b 163e edb0 8b3c
00000380: 4be0 4b3e 0f97 173e 66a4 1a3e fbc7 6c3d
00000390: c6fd 533d b87c e8bd 48d5 01be 2426 443d
000003a0: fb44 6f3e 0573 823e 4ead fa3d 7ee0 9a3c
000003b0: 8725 043d 9856 983d 3762 a53d f74d 9fbd
000003c0: 6e65 34be 42f4 8ebe 76a4 bc3a 95d0 9dbd
000003d0: 9cce 4a3d c35d 7c3e 0e45 0e3e 3dc6 1b3d
000003e0: fefe 603b 43d8 47be 0563 133e d454 ff3c
000003f0: 9a52 aabd 5f0f 2cbd d0fd bd3c 412d 8e3d
-0.1542 0.0859454 0.24425699 0.0021053816 0.1274822 -0.066543095 0.0016653399 0.19918841
0.23655969 0.17486338 0.3992693 -0.14678675 -0.07057642 -0.28249875 0.0035134936 0.067053325
0.13321245 0.1427294 -0.1504218 -0.05891393 0.2062901 0.24574113 -0.05424729 -0.024552107
0.26191458 0.20239179 -0.06476947 -0.00011764655 -0.2991175 -0.074173585 0.020599322 0.21563388
0.11013244 0.11361297 0.15908737 0.05391642 -0.26950583 0.035355747 0.11798646 0.07877476
0.034432784 0.2736626 0.2339834 -0.25509986 -0.015756931 -0.080920175 0.05923356 -0.07428616
0.0421523 -0.07736238 0.1403892 0.18683998 -0.06733295 0.21728873 -0.01841763 0.2473924
-0.08018105 0.21537927 0.12622017 -0.03696426 0.21213078 0.22607242 0.18184966 0.034115575
0.27105823 -0.07837423 0.105521046 0.030719534 0.081962116 0.20889063 -0.04595172 0.105847396
0.102194086 0.17239296 0.16971861 0.09592861 0.18950889 0.034910925 -0.008753678 -0.06927818
0.1949147 0.09263378 0.26749262 -0.10093046 0.13986532 0.054420587 -0.14430588 -0.19345315
0.16120316 0.21678728 0.18925023 0.2431185 0.060513537 0.14359798 0.049459446 0.07884994
0.11094044 0.23646787 0.090775505 0.022758842 -0.091707185 -0.18830343 -0.14767079 -0.07196653
0.19340183 0.2598196 0.13142844 -0.0011659563 0.03419776 0.032961026 -0.041875366 -0.0028616455
-0.16574466 -0.33153942 0.020976357 -0.008504235 -0.0070999 0.24510546 0.1781385 -0.017406682
0.005676413 -0.11839291 0.082760885 0.051484197 -0.018583406 -0.009777546 -0.041042775 0.075066835
-0.14126237 0.0027934602 0.12203891 0.041797347 0.14270099 -0.07543579 -0.0017668265 0.2515475
0.058725953 0.25227997 0.13730241 -0.25099593 -0.18509802 -0.08031723 0.010527473 0.037260726
0.17536643 0.028322838 -0.23773803 -0.053557545 0.2233366 0.25290585 -0.08008338 -0.035779625
0.26300696 0.09473153 -0.084746264 0.006874316 -0.2210375 0.036375225 0.021194406 0.13618022
0.2228666 0.0766581 0.18567103 0.025059838 -0.27428693 0.19460516 0.24239102 0.04214413
-0.04231107 0.2802142 0.19966836 -0.15787788 -0.0065375017 -0.01316054 -0.06251319 -0.19968018
-0.10585055 -0.080610074 0.16363218 0.078257084 0.0067828316 0.13875468 0.07332094 0.25339985
-0.08658858 0.12295619 0.14063127 -0.08440664 0.16711253 0.07021624 0.07414161 0.08611417
0.25594118 -0.0036276493 0.22636579 -0.071704306 0.026939081 0.17909351 -0.07075176 0.08710371
0.22912587 0.18893449 0.18957011 0.20102918 0.11893915 -0.0019491613 -0.051484562 -0.06614747
0.21224195 0.108546644 0.1327291 -0.17495146 0.25770175 0.05946766 -0.16242501 -0.13125929
0.11714995 0.20063743 0.14299494 0.25335953 -0.040064987 0.2426587 0.14659014 0.017052138
0.1990978 0.14803718 0.15101776 0.057807904 0.05175569 -0.11351913 -0.12679017 0.047887936
0.23366158 0.25478378 0.122400865 0.018905874 0.03226235 0.074383914 0.080753736 -0.077785425
-0.17616817 -0.2792073 0.0014392275 -0.077057995 0.049513444 0.24645142 0.1389353 0.03803085
0.0034331675 -0.19516091 0.14393242 0.031168379 -0.08316536 -0.042006847 0.023192316 0.06942225

layer3.bias f4 [6]
00000000: d050 9f3c b7a9 643c 5a6e 943d dd0a 2fbc
00000010: e0af 4dbc 670b e83d
0.019447714 0.013956479 0.072476104 -0.010683742 -0.012554139 0.113303
