Trained networks/target_net.pth (torch, 71855 bytes, 6 tensors)

layer1.weight f4 [128, 4]
0.3012016 0.39297044 -0.560944 -0.25130564 -0.26616585 -0.19211851 -0.56346625 -0.26229706
-0.17348199 -0.5118092 0.0032271924 -0.36449406 -0.21643186 -0.4204937 0.5677187 0.12733884
-0.2588594 0.33904842 0.026832419 -0.4173146 -0.17091954 -0.45163807 -0.44943473 0.17011617
0.016435703 0.18919629 0.7075078 -0.22206986 0.25715706 -0.33301648 0.22977021 0.17863986
0.2665032 -0.28110817 0.3758488 0.043823246 -0.63319623 -0.12523465 0.5787464 0.31336313
0.1221545 -0.21090148 0.07986325 -0.2655389 0.52048796 0.17685919 -0.25727975 0.09920088
0.089490436 0.21354507 -0.53019065 0.08287949 0.17481725 -0.3232878 -0.7731814 0.088030055
-0.14964807 -0.23578988 0.19172013 0.09373243 -0.43619308 -0.09596402 0.39458275 -0.18972169
0.7248153 -0.01994004 -0.6146201 -0.04793075 0.6162772 -0.21603686 -0.12354871 0.11284542
-0.21986592 0.16443677 0.48139393 0.042823598 -0.4676609 0.4168536 0.53844875 0.088212915
0.5197059 0.18790402 0.3549353 0.013022322 -0.21879524 -0.06354281 0.11733748 -0.41567075
-0.6432721 -0.35710847 0.66462576 0.47475392 0.5115782 0.52670753 -0.008213923 0.2269099
0.3255506 -0.24308725 0.11577022 0.4579641 0.26697746 0.102583244 0.08869459 0.09124922
-0.023532802 0.10926643 -0.11035628 0.43353054 0.26873925 0.12391844 -0.73084337 0.37839693
-0.41507268 -0.096935935 0.82497424 -0.22594991 -0.0196053 0.19496766 -0.61517894 -0.22122502
0.11310654 0.28743616 -0.1110642 0.10813793 -0.41605917 0.42579374 0.21655191 -0.3393992
-0.1755005 -0.03998154 -0.2535827 -0.4310261 0.0059250337 0.15082784 0.528631 -0.2515894
-0.22995436 -0.30483198 0.81073827 0.464537 -0.073042296 0.08213865 -0.172936 0.19070552
-0.5650106 0.5234783 -0.08757086 0.16599832 0.28750736 0.04551072 0.22680552 -0.31518286
-0.11244452 0.2626023 -0.11363346 -0.3822495 -0.4575861 0.39789724 0.5920425 0.3256065
-0.30505684 0.22050403 -0.4837926 0.07454768 0.46137172 -0.29801238 -0.5176995 0.075957194
0.19091173 0.033242267 0.61202735 0.3107941 -0.10820872 0.39926976 -0.29848456 0.19206172
0.36851567 -0.25433367 -0.47279918 0.5176494 0.22775924 -0.44902095 0.17078435 0.36397082
-0.22264928 0.412722 0.34769937 -0.26754722 -0.58888596 -0.05559459 0.015790775 0.2264433
-0.4665135 -0.14952989 0.67820144 0.042307276 0.21306328 0.41756433 -0.04197761 -0.2340299
0.25300387 -0.12959671 -0.41175976 0.41849217 -0.22896259 0.14486563 0.063279815 0.3856991
0.76604944 0.111492924 -0.21945006 -0.024725785 0.5041154 0.25892895 -0.5446347 -0.17700495
0.44472158 -0.079743415 0.15499488 0.108225375 -0.00203248 0.29774597 0.79168177 0.41991046
-0.4418526 -0.14565311 -0.046989404 -0.40634254 -0.012464011 -0.17871805 0.0539335 0.102168344
0.64113337 0.054379217 -0.14944407 -0.094021745 0.48689428 -0.17864662 -0.7465809 0.21423829
0.21101548 -0.12656307 -0.5448552 -0.086841725 0.0030314983 -0.24129097 -0.65685993 -0.40978566
0.40921047 -0.23861465 -0.58405393 -0.109281555 -0.08751221 -0.43480566 -0.19714622 -0.12469314
00000000: 1937 9a3e 6c33 c93e 079a 0fbf 22ab 80be
00000010: e446 88be b7ba 44be 533f 10bf cd4b 86be
00000020: 43a5 31be ed05 03bf 4e7f 533b f79e babe
00000030: 50a0 5dbe f34a d7be 0356 113f 1d65 023e
00000040: 3889 84be c197 ad3e a9cf db3c 42aa d5be
00000050: 8805 2fbe 1b3d e7be 4f1c e6be ef32 2e3e
00000060: 2ba4 863c acbc 413e 3b1f 353f 4866 63be
00000070: 17aa 833e 2381 aabe e248 6b3e 5eed 363e
00000080: 1c73 883e 69ed 8fbe 416f c03e 0180 333d
00000090: 2619 22bf 833d 00be b928 143f 2271 a03e
000000a0: 232c fa3d 8ff6 57be 588f a33d b7f4 87be
000000b0: b33e 053f 931a 353e 2cba 83be d529 cb3d
000000c0: c346 b73d 8fab 5a3e 93ba 07bf b9bc a93d
000000d0: 4b03 333e fb85 a5be 37ef 45bf 1a49 b43d
000000e0: 583d 19be e772 71be 4852 443e caf6 bf3d
000000f0: b354 dfbe c988 c4bd c006 ca3e 6746 42be
00000100: 7f8d 393f 4b59 a3bc be57 1dbf 0953 44bd
00000110: 58c4 1d3f c438 5dbe 1b07 fdbd 801b e73d
00000120: 8824 61be 1d62 283e 4479 f63e cc67 2f3d
00000130: 4071 efbe d66d d53e c7d7 093f f9a8 b43d
00000140: 720b 053f e969 403e 14ba b53e 945b 553c
00000150: dc0b 60be bc22 82bd a24e f03d ccd2 d4be
00000160: 7bad 24bf ecd6 b6be ea24 2a3f f212 f33e
00000170: caf6 023f 4ed6 063f b193 06bc 125b 683e
00000180: 91ae a63e ddeb 78be f018 ed3d 457a ea3e
00000190: 45b1 883e 2a17 d23d 82a5 b53d dfe0 ba3d
000001a0: ddc7 c0bc 14c7 df3d 7902 e2bd b7f7 dd3e
000001b0: 3198 893e f3c8 fd3d 8d18 3bbf 3ebd c13e
000001c0: 6884 d4be 5986 c6bd 8331 533f 6a5f 67be
000001d0: 4b9b a0bc 9aa5 473e 5e7c 1dbf d088 62be
000001e0: 67a4 e73d d52a 933e a175 e3bd 6b77 dd3d
000001f0: b505 d5be a301 da3e c9bf 5d3e bbc5 adbe
00000200: 67b6 33be afc3 23bd 97d5 81be 74af dcbe
00000210: c926 c23b 9d72 1a3e 5c54 073f 53d0 80be
00000220: 2879 6bbe f012 9cbe 8b8c 4f3f cbd7 ed3e
00000230: 3397 95bd 4f38 a83d 2316 31be 4f48 433e
00000240: 89a4 10bf ad02 063f 5a58 b3bd 77fb 293e
00000250: 2a34 933e 7369 3a3d b53f 683e a65f a1be
00000260: 5049 e6bd cf73 863e a9b8 e8bd 35b6 c3be
00000270: ba48 eabe 30b9 cb3e 1990 173f e5b5 a63e
00000280: 6930 9cbe cfcb 613e aab3 f7be 74ac 983d
00000290: ea38 ec3e 1495 98be f487 04bf 728f 9b3d
000002a0: 5d7e 433e 0b29 083d d3ad 1c3f 6720 9f3e
000002b0: 899c ddbd 166d cc3e f8d2 98be d4ab 443e
000002c0: 16ae bc3e 0638 82be bc12 f2be ac84 043f
000002d0: b839 693e 13e6 e5be 18e2 2e3e 625a ba3e
000002e0: 2cfe 63be 4c50 d33e a705 b23e f3fb 88be
000002f0: 3bc1 16bf 27b7 63bd a85b 813c c1e0 673e
00000300: dcda eebe 5d1e 19be 9c9e 2d3f 654a 2d3d
00000310: 432d 5a3e feca d53e b7f0 2bbd 89a5 6fbe
00000320: b989 813e 00b5 04be 2dd2 d2be 9b44 d63e
00000330: 2b75 6abe a857 143e d998 813d 5a7a c53e
00000340: d11b 443f 6756 e43d 84b7 60be bb8d cabc
00000350: b50d 013f 5692 843e 2e6d 0bbf c940 35be
00000360: 8cb2 e33e 8450 a3bd fab6 1e3e 44a5 dd3d
00000370: 5b33 05bb 2972 983e a8ab 4a3f 81fe d63e
00000380: 813a e2be 1726 15be f677 40bd 210c d0be
00000390: da35 4cbc dd01 37be 60e9 5c3d a33d d13d
000003a0: 5121 243f bebc 5e3d de07 19be 798e c0bd
000003b0: 354a f93e 24ef 36be ed1f 3fbf 4861 5b3e
000003c0: 7114 583e c099 01be a17b 0bbf 13da b1bd
000003d0: 1aac 463b fb14 77be f927 28bf 6dcf d1be
000003e0: 0984 d13e 6657 74be 8f84 15bf 02cf dfbd
000003f0: 9a39 b3bd d99e debe b3e0 49be 1e5f ffbd

layer1.bias f4 [128]
-0.2839004 0.70713246 0.3112766 -0.22601521 0.018817376 0.22653593 0.16315332 -0.3639746
0.7267403 -0.50904936 0.6118788 0.42454195 0.46716842 -0.10427276 0.52018267 -0.1604994
-0.16610545 0.6331541 0.12111989 0.26200005 0.40070343 0.56725633 -0.1458894 0.535076
0.45356816 -0.4679121 -0.18237476 0.33214435 0.2949332 -0.4952361 0.61568487 -0.19507886
0.013706043 0.1967468 0.25887108 0.50200176 0.16054302 0.47792774 -0.37124765 -0.23208708
-0.38900843 -0.061545786 -0.48801634 0.48852715 -0.09499899 0.7272462 0.2666341 -0.22775592
-0.28948304 -0.56707466 0.35128215 -0.45358527 -0.12204526 -0.47043136 0.5755406 -0.3996659
0.3407879 -0.35044423 -0.20994636 -0.050529208 0.12909387 -0.45371923 0.3880925 0.65120465
-0.07731583 0.30642352 -0.28318518 0.64760303 0.009605958 0.4235283 0.22942497 0.653585
-0.3258387 0.29223332 0.6139712 -0.3600981 -0.36123678 -0.43130112 0.32464755 -0.3811786
-0.19684057 -0.34624842 0.35367286 0.33372277 0.45201865 0.21292621 0.4337275 -0.521748
-0.5125466 -0.022370493 -0.094979905 -0.20506695 -0.41676414 -0.3071135 0.34359813 0.34202185
-0.32672986 0.15738218 0.10527728 0.33890495 -0.049493324 -0.32457805 0.51567197 0.2325742
-0.21219252 -0.26661405 -0.121051356 -0.33225006 -0.33561933 -0.5045118 -0.24214007 0.10986242
0.5848189 0.65461546 0.30132398 -0.51320404 0.64849603 0.2978939 -0.3186191 0.44793928
0.71137244 0.4179634 0.67700094 0.5244116 0.47101066 -0.32362136 0.5618187 -0.5440782
00000000: 655b 91be a206 353f a65f 9f3e 8870 67be
00000010: e626 9a3c 09f9 673e aa11 273e e15a babe
00000020: a70b 3a3f 0f51 02bf 17a4 1c3f 905d d93e
00000030: b330 ef3e f58c d5bd b12a 053f f459 24be
00000040: 8c17 2abe 6316 223f b40d f83d df24 863e
00000050: 0029 cd3e b637 113f 0864 15be befa 083f
00000060: 163a e83e 2d92 efbe 73c0 3abe d30e aa3e
00000070: 7c01 973e 968f fdbe 869d 1d3f c1c2 47be
00000080: 508f 603c fe77 493e c08a 843e 3083 003f
00000090: 6465 243e f2b2 f43e 2c14 bebe 3ca8 6dbe
000000a0: 1d2c c7be 6f17 7cbd 47dd f9be 3b20 fa3e
000000b0: d58e c2bd cf2c 3a3f 4484 883e d938 69be
000000c0: 1f37 94be ce2b 11bf 41db b33e 543c e8be
000000d0: def2 f9bd 61dc f0be a156 133f 02a1 ccbe
000000e0: c07b ae3e 6d6d b3be 2efc 56be b7f7 4ebd
000000f0: 2f31 043e e34d e8be 0fb4 c63e 59b5 263f
00000100: c357 9ebd 8be3 9c3e a6fd 90be 50c9 253f
00000110: 4f62 1d3c b4d8 d83e 61ee 6a3e 5951 273f
00000120: 55d4 a6be 9b9f 953e 372d 1d3f c75e b8be
00000130: 07f4 b8be 80d3 dcbe 3438 a63e d729 c3be
00000140: 9390 49be 7947 b1be 9c14 b53e b6dd aa3e
00000150: fd6e e73e 5409 5a3e 8811 de3e 4791 05bf
00000160: 4136 03bf 5342 b7bc d384 c2bd 12fd 51be
00000170: 1c62 d5be fb3d 9dbe 18ec af3e 7d1d af3e
00000180: 2349 a7be cb28 213e 9d9b d73d f384 ad3e
00000190: 83b9 4abd 182f a6be 1403 043f ee27 6e3e
000001a0: ff48 59be a381 88be c6e9 f7bd ae1c aabe
000001b0: 4cd6 abbe af27 01bf 91f3 77be 8cff e03d
000001c0: b1b6 153f e194 273f 2347 9a3e 5761 03bf
000001d0: d603 263f 8d85 983e 0b22 a3be 4c58 e53e
000001e0: 811c 363f 4cff d53e ef4f 2d3f d73f 063f
000001f0: 4f28 f13e b3b1 a5be 5ad3 0f3f b548 0bbf

layer2.weight f4 [128, 128]
-0.09101822 0.23137608 0.07276343 -0.039782662 0.08240883 0.0942753 0.13193244 -0.14730553
0.15872487 -0.274174 0.211778 0.2830062 0.30613583 0.015988674 0.13112146 0.05128305
-0.19710705 0.221539 0.33278653 0.26269272 0.12488552 0.23049939 -0.13744202 0.15259534
0.040985312 -0.090467304 -0.087673195 0.008500401 0.10761102 -0.27150196 0.21939823 0.015379077
-0.069420315 0.020069795 0.06774139 0.0808001 0.20971239 0.17021674 -0.12961438 -0.3989332
-0.07294573 0.037216756 -0.29962376 0.23231873 0.04752147 0.08607417 0.028289462 -0.079559505
-0.36246613 -0.14776936 0.08457711 -0.1564701 -0.12419904 -0.19660237 0.18052004 -0.26706168
0.13735852 -0.25195175 -0.217759 0.06294145 0.019376688 -0.32454175 0.25619692 0.19472548
-0.09390009 0.20471698 -0.4200636 0.17794847 0.034019735 0.19507332 0.069751695 0.16936088
-0.5686145 0.2190388 0.15270184 -0.045655157 -0.19053645 -0.16497417 0.06339721 -0.051609285
0.02077069 -0.22175968 -0.0018189716 0.012993041 0.19590825 0.020938145 0.12072879 -0.317548
-0.2329474 -0.02557927 -0.055962622 -0.4225643 -0.19030157 -0.11116213 0.13806131 0.15603802
-0.097951256 0.010704408 0.13895035 0.25263283 -0.017296795 -0.15459034 0.23868193 -0.035807617
0.03086016 -0.05505943 -0.018954523 -0.25862038 -0.10749804 -0.25998265 -0.32055372 0.057763867
0.21579419 0.09118926 0.115029596 -0.25495774 0.2769881 0.26470426 -0.3029092 0.24085946
0.2737985 0.045198116 0.2585233 0.18580133 0.14611468 -0.1922703 0.1739718 -0.07640848
0.03783755 -0.051695205 -0.07740833 0.07731311 0.01837682 -0.028301587 -0.032839894 0.0512762
0.07469386 -0.017266653 -0.06924526 -0.03175923 0.06593326 0.0359679 -0.04440649 0.086202085
0.034127515 0.030802382 -0.010502927 -0.023306036 -0.032374594 0.07137351 0.01804864 0.03912459
0.021711253 0.0059517003 -0.0060183457 0.0782602 0.0227757 -0.07927231 0.003274046 0.036358275
-0.056957886 -0.06729467 0.03017098 0.062124006 -0.026867192 -0.035484843 0.035716742 -0.06232601
-0.03258887 -0.08222399 -0.07197179 0.07356092 -0.038138624 -0.065596335 -0.072521195 0.034607664
-0.03465516 -0.074113235 -0.053195283 -0.038192455 -0.06474702 -0.015181724 0.032075804 -0.018438827
-0.08567965 0.04655787 0.016218899 0.0065606767 0.012990996 0.04527868 -0.01718556 -0.047285043
0.014335836 -0.048765376 -0.010041428 0.06399506 -0.06916203 0.07682673 0.06794588 0.027337225
0.011239886 -0.06627205 -0.054415874 0.015538016 -0.0058662198 -0.07920548 0.012413189 0.014870193
-0.08228902 0.0065170303 -0.079424 -0.017564017 0.043373644 0.039937492 -0.07843621 0.043833926
-0.035212748 0.038776834 -0.06149851 -0.07249683 -0.06272322 0.05889307 -0.0503778 0.011317296
0.008554361 -0.06433508 -0.08675519 -0.028275548 -0.013296809 -0.029211529 0.000198483 0.043679833
-0.06406588 -0.07816079 -0.058115497 0.07266961 -0.06889651 0.045199722 0.073351264 -0.08314092
0.06778397 -0.038347203 -0.03288947 0.057323795 0.00759876 -0.047061674 -0.05008377 -0.052189834
-0.04232286 -0.07838178 -0.07221915 -0.07371135 -0.041624986 0.024903163 0.021687001 -0.049174204
00000000: c367 babd daed 6c3e fe04 953d 25f3 22bd
00000010: f6c5 a83d 6913 c13d 4c19 073e 43d7 16be
00000020: c688 223e 8960 8cbe 55dc 583e 30e6 903e
00000030: d6bd 9c3e aefa 823c b444 063e 2d0e 523d
00000040: 6ed6 49be 1fdb 623e ff62 aa3e a97f 863e
00000050: fbc3 ff3d 0808 6c3e 9abd 0cbe f441 1c3e
00000060: 37e0 273d ec46 b9bd 018e b3bd 4445 0b3c
00000070: 2b63 dc3d 4e02 8bbe eea9 603e 86f8 7b3c
00000080: 3d2c 8ebd 6969 a43c ffbb 8a3d 867a a53d
00000090: d8be 563e 4c4d 2e3e a2b9 04be f940 ccbe
000000a0: 9264 95bd 9970 183d 4968 99be f6e4 6d3e
000000b0: dfa5 423d a847 b03d 4dbf e73c 18f0 a2bd
000000c0: 2995 b9be da50 17be c436 ad3d b339 20be
000000d0: 115c febd 2252 49be 3fda 383e 4fbc 88be
000000e0: b6a7 0c3e d2ff 80be 37fc 5ebe 72e7 803d
000000f0: dcbb 9e3c 562a a6be 3e2c 833e 1e66 473e
00000100: b14e c0bd 54a1 513e 9412 d7be 2038 363e
00000110: 4758 0b3d 4dc1 473e fad9 8e3d f06c 2d3e
00000120: b890 11bf b54b 603e df5d 1c3e e700 3bbd
00000130: fd1b 43be fdee 28be 65d6 813d 4264 53bd
00000140: 4b27 aa3c f814 63be 8f6a eeba c4e0 543c
00000150: 2c9c 483e 7986 ab3c a840 f73d a795 a2be
00000160: c389 6ebe 9e8b d1bc 1039 65bd 595a d8be
00000170: 6ade 42be f9a8 e3bd f25f 0d3e 6ec8 1f3e
00000180: ab9a c8bd 8b61 2f3c 0049 0e3e 1759 813e
00000190: 02b2 8dbc ee4c 1ebe 0969 743e 02ab 12bd
000001a0: 72ce fc3c ff85 61bd 8446 9bbc e469 84be
000001b0: ef27 dcbd 721c 85be 9e1f a4be ce99 6c3d
000001c0: 27f9 5c3e 6fc1 ba3d a394 eb3d d289 82be
000001d0: 62d1 8d3e 5187 873e ea16 9bbe dda3 763e
000001e0: 512f 8c3e a921 393d 2a5d 843e b442 3e3e
000001f0: 169f 153e 81e2 44be aa25 323e 0d7c 9cbd
00000200: 8cfb 1a3d 5abe 53bd 4288 9ebd 5656 9e3d
00000210: fc8a 963c bbd8 e7bc 2083 06bd fe06 523d
00000220: 18f9 983d cc72 8dbc 75d0 8dbd f715 02bd
00000230: 0408 873d 1453 133d 94e3 35bd b88a b03d
00000240: 4bc9 0b3d 4755 fc3c 7814 2cbc 4dec bebc
00000250: 399b 04bd 462c 923d beda 933c 1b41 203d
00000260: ccdb b13c 7b06 c33b 8b35 c5bb e246 a03d
00000270: 1b94 ba3c 8559 a2bd 6091 563b 6aec 143d
00000280: ac4c 69bd cad1 89bd 2229 f73c be75 7e3d
00000290: 9618 dcbc 8e58 11bd b84b 123d 8f49 7fbd
000002a0: e87b 05bd 0d65 a8bd f265 93bd 1ca7 963d
000002b0: 3f37 1cbd 5f57 86bd fe85 94bd c4c0 0d3d
000002c0: 92f2 0dbd aec8 97bd 4ce3 59bd b16f 1cbd
000002d0: 169a 84bd c4bc 78bc eb61 033d 060d 97bc
000002e0: d078 afbd 77b3 3e3d 7fdd 843c f2fa d63b
000002f0: 30d8 543c 2376 393d bbc8 8cbc f6ad 41bd
00000300: dbe0 6a3c 34be 47bd cd84 24bc d80f 833d
00000310: d3a4 8dbd 5557 9d3d 3627 8b3d 51f2 df3c
00000320: 8027 383c a4b9 87bd 2ee3 5ebd 2a93 7e3c
00000330: 6b39 c0bb 7c36 a2bd b060 4b3c 1ca2 733c
00000340: 2587 a8bd d08c d53b 0da9 a2bd 6ae2 8fbc
00000350: 90a8 313d 7f95 233d 2aa3 a0bd 348b 333d
00000360: 3e3b 10bd 75d4 1e3d dde5 7bbd 3879 94bd
00000370: 0875 80bd dc39 713d f458 4ebd 2e6c 393c
00000380: 9727 0c3c 1cc2 83bd b4ac b1bd 1fa2 e7bc
00000390: dcda 59bc 044d efbc e01f 5039 a0e9 323d
000003a0: f934 83bd c412 a0bd 840a 6ebd ced3 943d
000003b0: 9d19 8dbd 5823 393d 3039 963d c945 aabd
000003c0: 52d2 8a3d f511 1dbd 1cb7 06bd 5bcc 6a3d
000003d0: 05ff f83b bec3 40bd a424 4dbd 02c5 55bd
000003e0: bc5a 2dbd a086 a0bd a2e7 93bd faf5 96bd
000003f0: f67e 2abd b801 cc3c f0a8 b13c e46a 49bd

layer2.bias f4 [128]
0.12720188 -0.009540551 0.021868845 0.15149856 0.0047408743 0.19490546 -0.0182072 0.05332065
-0.03130886 0.0022770406 -0.06183706 0.08020523 0.13304795 -0.058531478 0.14880364 0.060417067
0.1599301 -0.03228773 0.24248962 0.18150546 0.1034662 0.12933812 0.11159866 0.063585095
0.26736766 0.0033607085 0.18302639 -0.009755733 0.19065233 0.15320762 -0.058097377 0.28105766
0.060411822 0.21084289 0.11852611 0.054510206 0.13208099 0.20788322 -0.038352463 0.23101164
0.14736381 -0.072842054 0.023520552 0.003797555 0.19439827 0.028029487 0.2371638 0.10528345
0.13138683 -0.057574585 -0.05723426 0.12469612 0.19121906 -0.03388483 0.092533715 0.0045933123
0.17474543 -0.05788295 0.12195895 -0.08225224 0.11791157 0.077797785 -0.0855399 0.11286851
0.15028505 -0.05285711 0.11464493 0.19645159 0.11419382 0.2135885 -0.09681907 -0.09313966
0.29915476 0.099501014 0.11832817 0.113619916 -0.015303757 0.056176808 0.18646951 0.024687896
0.17007153 -0.0015688102 0.066692635 0.08105944 0.1917818 0.10525556 0.009749136 0.21029885
0.17299336 0.11739416 0.003576773 -0.0023335374 0.040381294 0.22556563 0.06917367 0.055550527
0.0011689519 0.0031987522 0.049141087 0.045442414 -0.08735883 0.14187911 0.026510995 0.009499776
-0.024620188 0.038217653 -0.11564549 0.11811618 0.093783185 -0.04301934 -0.04919889 0.06926186
-0.037463196 0.21445557 0.045250855 -0.007880983 0.0658909 0.028489714 0.10054253 0.040947508
-0.044616148 0.050380703 0.12512194 0.20509134 0.15649182 0.0941566 0.071309954 0.08222749
00000000: 3641 023e f94f 1cbc 4b26 b33c 7022 1b3e
00000010: 5659 9b3b 4c95 473e 4427 95bc c166 5a3d
00000020: b83d 00bd 673a 153b db48 7dbd a442 a43d
00000030: b93d 083e b4be 6fbd fb5f 183e e377 773d
00000040: b7c4 233e 2440 04bd 334f 783e 91dc 393e
00000050: 16e6 d33d 3671 043e d78d e43d e738 823d
00000060: 6ae4 883e 553f 5c3b 456b 3b3e 83d6 1fbc
00000070: 5d3a 433e 75e2 1c3e 84f7 6dbd cae6 8f3e
00000080: 6372 773d 33e7 573e d1bd f23d 1846 5f3d
00000090: 3d40 073e 57df 543e 7917 1dbd 518e 6c3e
000000a0: 8ae6 163e 372e 95bd 2cae c03c 67e0 783b
000000b0: 5710 473e 189e e53c 11db 723e d99e d73d
000000c0: 458a 063e 54d3 6bbd 796e 6abd ae60 ff3d
000000d0: eece 433e d2ca 0abd 5182 bd3d 7f83 963b
000000e0: 77f0 323e ac16 6dbd 9dc5 f93d dd73 a8bd
000000f0: 9f7b f13d 7254 9f3d 8b2f afbd 9b27 e73d
00000100: 53e4 193e b280 58bd f6ca ea3d 9b2a 493e
00000110: 73de e93d f2b6 5a3e 1449 c6bd 02c0 bebd
00000120: d02a 993e 30c7 cb3d 0a56 f23d 8fb1 e83d
00000130: 9cbc 7abc a719 663d ddf1 3e3e 453e ca3c
00000140: 3b27 2e3e 89a0 cdba 2696 883d 7e02 a63d
00000150: 7362 443e 3a90 d73d d7ba 1f3c 9558 573e
00000160: 2c25 313e 596c f03d 4b68 6a3b 43ee 18bb
00000170: db66 253d adfa 663e edaa 8d3d f388 633d
00000180: 8437 993a 28a2 513b 2a48 493d d321 3a3d
00000190: 30e9 b2bd c248 113e 962d d93c f3a4 1b3c
000001a0: 47b0 c9bc 1d8a 1c3d 8bd7 ecbd e5e6 f13d
000001b0: 6611 c03d 0c35 30bd c684 49bd 29d9 8d3d
000001c0: 0273 19bd 3e9a 5b3e f658 393d 3d1f 01bc
000001d0: cff1 863d 4363 e93c 3ee9 cd3d 93b8 273d
000001e0: 6cbf 36bd ff5b 4e3d f71f 003e 7703 523e
000001f0: 643f 203e 2dd5 c03d f40a 923d e366 a83d

layer3.weight f4 [2, 128]
0.25777456 -0.07620729 0.1824226 0.30224964 -0.20284107 0.3064323 -0.02523287 0.20086984
0.0060155517 -0.13419452 -0.40790164 0.34356016 0.2612236 0.053791244 0.31017092 0.2713822
0.21745108 -0.016229277 0.13935634 0.22261357 0.22637266 0.27823412 0.32348934 0.22397752
0.22862814 0.014435032 0.120548524 0.025723636 0.21986581 0.308235 0.0659091 0.22937828
0.010483249 0.18069662 0.3344582 -0.0838434 0.08163476 0.19789876 -0.26775113 0.24778448
0.20892537 -0.256503 -0.38397163 -0.49194098 0.28724858 -0.3145744 0.17336036 0.08646667
0.2308359 -0.27695027 -0.20997255 0.21568544 0.22150634 -0.043427333 0.30500898 0.024181988
0.09670516 0.030996969 0.17551024 -0.29480958 0.27612638 -0.056032814 -0.112803094 0.30769694
0.15381987 0.03684699 0.25015107 0.2409626 0.1932485 0.32324463 -0.11511608 -0.30231273
0.1688319 0.26178524 0.2371506 0.246598 -0.0026079677 0.28200668 0.15984458 -0.004201756
0.15557113 0.030230982 -0.05630854 0.034836985 0.18369298 0.2948585 -0.03284893 0.31884745
0.33130643 0.19763468 0.071431994 -0.2986974 0.2637712 0.11356582 -0.070960134 0.020873051
0.075378716 -0.03632228 0.19832997 -0.2555139 -0.12512128 0.24437003 -3.9822495e-05 -0.08885455
0.08132159 0.0592043 -0.36412755 0.24388012 0.1117831 -0.020060057 -0.37336895 0.17875832
-0.08108711 0.22504129 0.28411454 -0.26995164 -0.013336388 -0.025454607 0.28145728 -0.014803882
-0.02655861 0.22596641 0.2255073 0.09000751 0.28153226 0.26917636 0.2699143 -0.021089584
0.21555686 0.07877688 0.23525026 0.2781898 -0.34137073 0.22119437 0.053465046 0.19442217
0.060871772 0.19154488 -0.086345345 0.32604104 0.24437961 -0.23437117 0.20842215 0.25038844
0.17969923 0.034072977 0.23745568 0.30752042 0.26649934 0.261385 0.22135153 0.24877937
0.28123653 0.079923645 0.31890503 -0.01771031 0.35324237 0.18235373 -0.3260742 0.1669226
-0.030103078 0.24944778 0.26327848 -0.21115252 0.24182804 0.24846064 0.045844845 0.20480795
0.1785557 -0.33062077 -0.18815447 -0.30686158 0.25784436 0.16688617 0.22619265 0.2891826
0.14816453 -0.087742046 -0.37439215 0.27524835 0.20480853 -0.054359343 0.18130088 -0.2224345
0.26100567 -0.052164637 0.1335292 -0.34248263 0.14507055 -0.05890761 -0.17385127 -0.26584396
0.32916328 -0.25057983 0.22002481 0.32288602 0.16390811 0.18994072 -0.42093992 0.021755895
0.33745638 0.060617093 0.2818708 0.2379091 -0.11543181 0.29414955 0.22970608 -0.1364123
0.24536456 -0.2596873 0.045024812 0.020027557 0.17095163 0.22166716 -0.26813185 0.16807151
0.2323957 0.20323803 0.0042292844 -0.19180533 0.2565842 0.24680285 -0.24981846 -0.07653161
0.025880016 -0.049743354 0.26167175 -0.32235828 -0.32221058 0.23996656 -0.06529363 -0.034426633
0.018577594 -0.11656147 -0.14163037 0.29533643 0.33883822 -0.27210176 0.039145198 0.20756152
-0.030738093 0.15328994 0.1345233 -0.44040638 -0.038126666 -0.021376278 0.32108167 -0.072800584
-0.23653099 0.23760436 0.26490042 0.22113165 0.21023218 0.18699032 0.19166793 -0.18133864
00000000: 07fb 833e 9112 9cbd fdcc 3a3e 77c0 9a3e
00000010: 92b5 4fbe b2e4 9c3e 2ab5 cebc d3b0 4d3e
00000020: 1b1e c53b 4a6a 09be 7cd8 d0be 1ee7 af3e
00000030: 1abf 853e 3554 5c3d b9ce 9e3e 9cf2 8a3e
00000040: 7fab 5e3e 43f3 84bc 6eb3 0e3e d0f4 633e
00000050: 3cce 673e b474 8e3e 65a0 a53e 5d5a 653e
00000060: 7f1d 6a3e ea80 6c3c 25e2 f63d 60ba d23c
00000070: 8124 613e fad0 9d3e 5afb 863d 24e2 6a3e
00000080: efc1 2b3c 8908 393e 1b3e ab3e 17b6 abbd
00000090: 2030 a73d f9a5 4a3e ad16 89be 37bb 7d3e
000000a0: 88f0 553e 5c54 83be ee97 c4be b0df fbbe
000000b0: 3f12 933e e50f a1be 6185 313e 7015 b13d
000000c0: 3f60 6c3e 6dcc 8dbe 0b03 57be a5dc 5c3e
000000d0: 8fd2 623e dce0 31bd 232a 9c3e 4e19 c63c
000000e0: 5b0d c63d 5bed fd3c f5b8 333e 48f1 96be
000000f0: 7060 8d3e aa82 65bd 4f05 e7bd 748a 9d3e
00000100: f582 1d3e dfec 163d cd13 803e e6be 763e
00000110: efe2 453e 5280 a53e fbc1 ebbd bcc8 9abe
00000120: 45e2 2c3e b708 863e 9bd7 723e 3084 7c3e
00000130: 70ea 2abb 2e63 903e 4cae 233e e2ae 89bb
00000140: 0a4e 1f3e f7a6 f73c c9a3 66bd 3ab1 0e3d
00000150: 031a 3c3e b1f7 963e 9a8c 06bd f93f a33e
00000160: ffa0 a93e bf60 4a3e f04a 923d deee 98be
00000170: 050d 873e 3295 e83d 8c53 91bd f6fd aa3c
00000180: 2860 9a3d acc6 14bd 0317 4b3e b8d2 82be
00000190: cb1f 00be 233c 7a3e 1407 27b8 60f9 b5bd
000001a0: ef8b a63d 3580 723d ed6e babe b6bb 793e
000001b0: 8aee e43d fd54 a4bc 372a bfbe 6c0c 373e
000001c0: 0011 a6bd 3971 663e 7677 913e 1a37 8abe
000001d0: de80 5abc 2e86 d0bc 2b1b 903e fb8b 72bc
000001e0: 7191 d9bc bd63 673e 63eb 663e db55 b83d
000001f0: ff24 903e 7cd1 893e 3532 8a3e 10c4 acbc
00000200: f0ba 5c3e c655 a13d 72e5 703e e56e 8e3e
00000210: 25c8 aebe c780 623e 2afe 5a3d 9b16 473e
00000220: ae54 793d 5724 443e d4d5 b0bd daee a63e
00000230: a63e 7a3e fffe 6fbe 9e6c 553e ea32 803e
00000240: 1303 383e 1b90 0b3d 9527 733e 5173 9d3e
00000250: 9a72 883e 41d4 853e faa9 623e 05c0 7e3e
00000260: 3cfe 8f3e 02af a33d 8547 a33e 3615 91bc
00000270: 2fdc b43e f0ba 3a3e 33f3 a6be c2ed 2a3e
00000280: bb9a f6bc 3d6f 7f3e 70cc 863e 5e38 58be
00000290: c5a1 773e 776c 7e3e cec7 3b3d 2db9 513e
000002a0: 4ed7 363e 2047 a9be 91ab 40be f61c 9dbe
000002b0: 2d04 843e 35e4 2a3e 0c9f 673e be0f 943e
000002c0: 71b8 173e 1ab2 b3bd 54b0 bfbe 5aed 8c3e
000002d0: 54b9 513e e7a7 5ebd f0a6 393e dfc5 63be
000002e0: 89a2 853e 96aa 55bd e1bb 083e e259 afbe
000002f0: 608d 143e 1b49 71bd 1106 32be b31c 88be
00000300: 1788 a83e 004c 80be 2f4e 613e 5151 a53e
00000310: 87d7 273e d27f 423e 7085 d7be 6b39 b23c
00000320: 15c7 ac3e a149 783d 5f51 903e 719e 733e
00000330: 8367 ecbd c59a 963e 1238 6b3e aaaf 0bbe
00000340: d940 7b3e bcf5 84be f06b 383d d510 a43c
00000350: f20d 2f3e b7fc 623e 9448 89be f01a 2c3e
00000360: 23f9 6d3e a11d 503e cf95 8a3b 9e68 44be
00000370: 015f 833e e3b9 7c3e 69d0 7fbe 9bbc 9cbd
00000380: 5402 d43c b0bf 4bbd d7f9 853e 250c a5be
00000390: c9f8 a4be cbb9 753e abb8 85bd f102 0dbd
000003a0: 0a30 983c c8b7 eebd 8d07 11be 5636 973e
000003b0: 347c ad3e ec50 8bbe b756 203d 028b 543e
000003c0: 74ce fbbc 0af8 1c3e 7ac0 093e f27c e1be
000003d0: b52a 1cbd 4e1d afbc d164 a43e 7918 95bd
000003e0: 2e35 72be 8f4e 733e 07a1 873e 5670 623e
000003f0: 1b47 573e 647a 3f3e 9944 443e d6b0 39be

layer3.bias f4 [2]
0.059485227 0.07445616
00000000: c8a6 733d 797c 983d
